actor_critic_checkpoint.pth (torch_old, 17178 bytes, 11 tensors)

fc1.weight f4 [24, 24]
0	0x3b28ba61	0.0025745856
1	0x3d1669c3	0.036721956
2	0x3d7f3f02	0.06231595
3	0x3cec0a2e	0.028813448
4	0xbd89b925	-0.06724767
5	0x3d40fb3d	0.0471146
6	0xbb10ca70	-0.0022093318
7	0xbe08f90a	-0.13376251
8	0xbe0d93fc	-0.13825983
9	0xbe1d2580	-0.15346336
10	0xbe8c3f43	-0.27392015
11	0x3dd3ee6f	0.10348212
12	0x3cf6cc4e	0.030126717
13	0xbdabc290	-0.08386719
14	0x3da4bbf7	0.08043664
15	0xbe1434ab	-0.14473216
16	0xbdeb93c1	-0.11502791
17	0x3bb3a9b1	0.0054828753
18	0xbd8cbdee	-0.06872164
19	0xbc83e297	-0.016099257
20	0x3e438e89	0.19097342
21	0x3e9e8993	0.30964336
22	0xbe102e2a	-0.1408011
23	0xbe423e57	-0.18969093
24	0x3b6a0a74	0.0035711797
25	0x3e16e271	0.14734818
26	0xbd3b4ac6	-0.045725606
27	0x3d765d20	0.060147405
28	0xbd3ceb34	-0.046122745
29	0xbb411d31	-0.0029466862
30	0xbd661bac	-0.056178734
31	0xbd9bef61	-0.07614017
32	0xbe349ffb	-0.17639153
33	0xbe3fd8a8	-0.18734992
34	0xbdac417d	-0.084109284
35	0x3cf6caba	0.030125964
36	0x3dbe8589	0.093028136
37	0xbd7ea3d7	-0.06216797
38	0xbc7656f7	-0.0150353825
39	0x3c6d14ba	0.014470274
40	0xbe26ef56	-0.16302237
41	0xbe435d1b	-0.19078486
42	0xbe55f4a3	-0.20894103
43	0xbd280d6e	-0.041028433
44	0xbe36a350	-0.17835736
45	0xbe0264b4	-0.12733728
46	0xbda65382	-0.081213966
47	0x3d0fc8c3	0.03510357
48	0xbcf50e1d	-0.029913956
49	0x3daa0310	0.083013654
50	0x3e188c27	0.14897214
51	0xbdd2bc4c	-0.10289821
52	0xbddbe1c0	-0.10736418
53	0x3d9b1ce3	0.07573869
54	0x3e127cc7	0.14305411
55	0xbd13342b	-0.035938423
56	0xbe29059e	-0.16506049
57	0xbe6aff57	-0.22948967
58	0x3e2a9926	0.16659984
59	0xbd4c6ebf	-0.049910303
60	0xbe41e4df	-0.18934964
61	0x3e3fdb72	0.18736055
62	0x3e50e9a8	0.20401633
63	0xba32e6ea	-0.000682457
64	0xbe88d953	-0.26728305
65	0x3d368a6a	0.044565596
66	0xbdbc9043	-0.09207203
67	0xbdb918e3	-0.0903795
68	0xbe9277bc	-0.28606975
69	0xbc8b3b9b	-0.016996196
70	0xbe3a7e92	-0.18212345
71	0xbde9c0da	-0.11413737
72	0xbe2e46f5	-0.17019255
73	0xbdd5cc9a	-0.10439415
74	0xbc6d60f8	-0.014488451
75	0xbe3b267d	-0.18276401
76	0x3c057eb4	0.008147884
77	0xbe086daa	-0.13323084
78	0x3b0e6613	0.0021728321
79	0x3e189058	0.14898813
80	0x3af003de	0.0018311699
81	0xbe035e15	-0.12828858
82	0xbe73adc8	-0.23796761
83	0xbdd53422	-0.10410334
84	0x3d8adfb1	0.06780947
85	0xbd00f9ee	-0.03148835
86	0x3cebf02f	0.028801052
87	0xbc6dad07	-0.014506585
88	0x3e0c47a3	0.13699202
89	0xbe3fb27a	-0.18720427
90	0xbd7b5bbd	-0.061366785
91	0x3e3d2539	0.1847123
92	0xbe38d370	-0.18049407
93	0xbe61a65c	-0.22036117
94	0x3c6c7f7e	0.014434693
95	0xbd39d04c	-0.045364663
96	0xbe15261e	-0.14565322
97	0x3d8fcc91	0.0702144
98	0xbdc99427	-0.09842711
99	0xbdf3def7	-0.119077615
100	0xbde5796f	-0.11204802
101	0x3e097441	0.13423254
102	0x3a926377	0.0011168559
103	0xbdb95ae5	-0.0905054
104	0xbc3a8eb9	-0.011386567
105	0x3d3ce160	0.04611337
106	0xbd45b78d	-0.04827075
107	0xbe5b8660	-0.21437979
108	0xbd96e77f	-0.07368373
109	0x3d7cba59	0.061701152
110	0xbe8c7871	-0.2743564
111	0x3d76a7b2	0.06021852
112	0xbe24d135	-0.16095431
113	0x3d847298	0.064671695
114	0xbe6f3715	-0.23360856
115	0xbd3e43cc	-0.046451375
116	0x3e090890	0.13382173
117	0xbcde14c4	-0.027109511
118	0xbddc0ae8	-0.10744268
119	0x3c91f403	0.01781655
120	0xbe279f8e	-0.16369459
121	0xbe131004	-0.14361578
122	0xbe3fa72b	-0.18716113
123	0xbe2785f1	-0.16359688
124	0xbd217919	-0.03942213
125	0xbddebd54	-0.10875955
126	0x3d044140	0.03228879
127	0xbcfe72cf	-0.031060604
128	0x3e1fe1a0	0.15613413
129	0xbdacd017	-0.084381275
130	0xbe068638	-0.13137138
131	0x3daacd55	0.08339945
132	0xbda6912f	-0.0813316
133	0x3e2a1290	0.16608644
134	0xbe205cc4	-0.15660387
135	0xbd5c8a05	-0.053842563
136	0xbcf20321	-0.029542508
137	0x3e084765	0.13308485
138	0x3d38f9c2	0.045160063
139	0xbe13d46d	-0.14436503
140	0x3d22ba6a	0.03972856
141	0xbdc03827	-0.0938571
142	0xbdad688e	-0.08467208
143	0xbd22f0f5	-0.039780576
144	0x3db35190	0.08755791
145	0x3db16fea	0.08663924
146	0x3d4d55a4	0.0501305
147	0x3d8dd611	0.069255956
148	0x3de881ca	0.1135288
149	0xbd32830e	-0.043582015
150	0xbe1f9c72	-0.15587023
151	0xbcd029ef	-0.02541062
152	0xbe35fbb3	-0.17771797
153	0xbc6299ee	-0.013830645
154	0x3d2fdbed	0.042934347
155	0xbca9b5a7	-0.020716501
156	0xbd5e3ba5	-0.0542561
157	0x3c83f9dc	0.016110353
158	0x3e4b551e	0.19856688
159	0x3e6ce361	0.23133613
160	0xbe9cdc0d	-0.30636635
161	0xbde96c70	-0.11397636
162	0x3d735655	0.059408505
163	0x3e0ce776	0.1376017
164	0xbd64ff84	-0.05590774
165	0x3e333937	0.17502294
166	0x3d02dfa2	0.031951554
167	0x3e84360e	0.2582249
168	0xbe85e523	-0.2615138
169	0xbe090aa9	-0.13382973
170	0xbe0ef159	-0.13959254
171	0x3ce50cc3	0.027960187
172	0x3e22dfe7	0.15905724
173	0x3e4bedf3	0.19914989
174	0xbe2060b9	-0.15661897
175	0x3e84fc5f	0.25973794
176	0x3dda7b53	0.106680535
177	0xbe1fc71b	-0.15603296
178	0x3e0f0bad	0.13969298
179	0x3d22a542	0.039708383
180	0x3e279cf2	0.16368464
181	0xbc275a1d	-0.010214356
182	0x3cc91891	0.024547847
183	0x3c00ba9b	0.00785699
184	0xbea54e2a	-0.32286197
185	0x3d212439	0.039341185
186	0xbcd09041	-0.02545941
187	0x3d2fa46f	0.042881425
188	0x3cfa3705	0.030543813
189	0x3eaa7613	0.33293208
190	0xbdeea084	-0.1165171
191	0xbd0b549d	-0.03401624
192	0xbe518c87	-0.20463763
193	0xbe86c5ff	-0.26322934
194	0x3d556fc7	0.052108552
195	0xbe8655bf	-0.26237294
196	0xbd4ce4fa	-0.050023057
197	0xbd7f2ac1	-0.062296633
198	0xbd5e96ff	-0.05434322
199	0xbd4d757b	-0.050160866
200	0xbe3ec3a7	-0.18629323
201	0x3e0cc379	0.13746442
202	0xbeab8704	-0.33501446
203	0xbd8d7fb4	-0.06909123
204	0xbd0dba4f	-0.034601506
205	0xbd9c2673	-0.07624521
206	0x3bf34648	0.0074241497
207	0x3daa1e17	0.083065204
208	0xba58fc11	-0.0008277307
209	0xbdeb5f41	-0.114927776
210	0x3cdf7d40	0.027281404
211	0x3cf32168	0.029679015
212	0x3c7d346c	0.015454393
213	0xbdf3552a	-0.11881478
214	0xbded4c8c	-0.11586866
215	0x3daabd30	0.08336866
216	0x3c7c85f4	0.015412796
217	0xbd78e52c	-0.06076543
218	0xbe42d69b	-0.19027178
219	0xbe1cfe8b	-0.15331475
220	0x3da1aa9a	0.07893868
221	0xbd191d31	-0.037381355
222	0xbcfe4c4e	-0.031042244
223	0x3d119bc0	0.035548925
224	0xbe0c6e8c	-0.13714045
225	0xbca7a46d	-0.020464147
226	0xbe395860	-0.18100119
227	0x3d9a214e	0.075258836
228	0x3de59a3c	0.112110585
229	0x3db17dab	0.086665474
230	0x3cea411f	0.028595505
231	0xbe5b1abc	-0.21396917
232	0xbdb1b5f3	-0.08677282
233	0x3b4ecdd4	0.0031555789
234	0xbe62d0a7	-0.22149907
235	0xbad4f639	-0.0016247696
236	0xbe5fe20a	-0.21863571
237	0x3d874a99	0.06606025
238	0x3defc94a	0.11708315
239	0xbe6d2cb5	-0.23161586
240	0x3d9dd929	0.07707436
241	0xbce44e76	-0.027869444
242	0xbe42566a	-0.18978277
243	0x3e4825f4	0.19545728
244	0xbe569633	-0.20955734
245	0xbda601de	-0.08105825
246	0xbe206055	-0.15661748
247	0xbc28215b	-0.010261859
248	0x3c00677e	0.007837174
249	0xbdac8f14	-0.084257275
250	0xbe83aa34	-0.25715792
251	0xbcd89e12	-0.026442561
252	0x3dc99df8	0.09844583
253	0x3e2aa901	0.16666032
254	0x3d1db5bd	0.038503397
255	0x3cdb302c	0.026756369

fc1.bias f4 [24]
0	0x3de7aa14	0.11311737
1	0xbe677e9b	-0.2260689
2	0x3e19079e	0.14944312
3	0x3e15ee46	0.14641675
4	0xbd8f2a00	-0.06990433
5	0xbe559667	-0.20858155
6	0xbd9f06b2	-0.07764949
7	0x3e3fd35a	0.18732968
8	0xbc510eea	-0.012759903
9	0xbdebb2aa	-0.11508687
10	0x3ea97502	0.33097082
11	0x3d4989e8	0.049203783
12	0x3df5a4af	0.119943015
13	0x3e85f183	0.2616082
14	0xbdbe3d3a	-0.09289022
15	0xbe0032e7	-0.12519418
16	0xbe866175	-0.2624623
17	0x3e629346	0.22126493
18	0x3d9cce33	0.07656517
19	0x3de9ef55	0.11422602
20	0xbe4c3397	-0.19941555
21	0x3e568762	0.20950082
22	0x3e117b64	0.14207226
23	0x3e402af4	0.18766385

fc2.weight f4 [48, 24]
0	0x3ea23d48	0.3168738
1	0xbc1b2331	-0.0094688395
2	0x3e2ce506	0.1688424
3	0xbceca2fb	-0.028886309
4	0xbce062ba	-0.027390826
5	0x3e331cee	0.17491505
6	0xbcf8b840	-0.030361295
7	0x3dbbfee0	0.09179473
8	0x3d1898b1	0.037254993
9	0x3d6e1440	0.05812478
10	0xbc8e8538	-0.017397508
11	0xbd9436b3	-0.072369955
12	0x3deab1d7	0.114597015
13	0xbc7d1a5a	-0.015448177
14	0xbd00dd10	-0.03146082
15	0x3df4c2c8	0.11951214
16	0xbda51ad0	-0.08061755
17	0x3e2c3de4	0.16820484
18	0x3e13eede	0.1444659
19	0x3e68482f	0.22683786
20	0xbdb0ca6f	-0.08632361
21	0x3d6356bc	0.05550264
22	0x3e0e3423	0.13887076
23	0x3e8b36ba	0.2719019
24	0xbe3a91c9	-0.18219675
25	0x3d3919e3	0.045190703
26	0x3d1ea335	0.038729865
27	0x3d8fd90a	0.07023819
28	0xbe02a02b	-0.12756412
29	0x3d9f9648	0.07792336
30	0xbe0b5800	-0.13607788
31	0xbdbed162	-0.0931728
32	0xbb47e25a	-0.0030499906
33	0x3dc69845	0.09697012
34	0xbe0f9da7	-0.14024983
35	0x3d6fe9a4	0.058572426
36	0xbd3e337a	-0.04643581
37	0x3c5cb18b	0.013470064
38	0x3daa3d77	0.08312505
39	0xbca8a741	-0.020587565
40	0xbe12578e	-0.14291212
41	0xbde62a4e	-0.11238538
42	0x3b7f8af9	0.0038992746
43	0xbe1d82a3	-0.15381865
44	0xbd2381c9	-0.039918695
45	0xbdba2c4a	-0.09090479
46	0xbd1cb835	-0.03826161
47	0x3b914b64	0.004434036
48	0x3dad61c0	0.0846591
49	0x3c864e9f	0.016394911
50	0x3dfea24c	0.124332994
51	0xbcfcb5b2	-0.030848358
52	0x3e74235f	0.23841618
53	0xbd5d36af	-0.05400723
54	0x3e41fd3f	0.18944262
55	0x3e53be23	0.20678
56	0x3e2130b0	0.15741229
57	0x3d03a05e	0.03213536
58	0x3f0d3baa	0.55169165
59	0x3e0e6dc3	0.13909058
60	0x3e25f9c8	0.16208565
61	0xbc8ce6ee	-0.01719996
62	0x3c8c42d3	0.017121708
63	0x3e49eaaa	0.19718423
64	0x3ca7ae4e	0.020468857
65	0x3d036150	0.032075226
66	0xbb97d0be	-0.0046330383
67	0x3d688bc0	0.0567739
68	0xbd47cab2	-0.04877729
69	0x3dd2380d	0.10264597
70	0xbd604c10	-0.05476004
71	0xbd1af8cc	-0.037834927
72	0xbd3da151	-0.04629642
73	0x3d896e58	0.067104995
74	0xbdaf8b0a	-0.085714415
75	0x39fe4be5	0.000485032
76	0xbd00f6c4	-0.031485334
77	0x3d3c01f0	0.045900285
78	0xbe294c02	-0.16532901
79	0x3c3ba194	0.011452097
80	0x3dcc196a	0.09965785
81	0x3da330ed	0.07968316
82	0xbe47e6c2	-0.19521621
83	0xbd226839	-0.039650176
84	0xbd0ed6ac	-0.034872696
85	0xbd593dd3	-0.053037476
86	0xbdebbd0c	-0.11510667
87	0xbe0feb1f	-0.14054535
88	0x3d8060b4	0.06268445
89	0xbddf662e	-0.10908161
90	0xbd1c0bd6	-0.038097225
91	0x3bd140c1	0.006385893
92	0xbe06cd16	-0.13164172
93	0x3a11deba	0.00055645
94	0x3d911c21	0.07085443
95	0xbdf57de1	-0.119869
96	0xbd000e1f	-0.031263467
97	0xbcd84f38	-0.026404962
98	0x3d9ec455	0.07752291
99	0x3d9e233d	0.07721565
100	0x3b69ad55	0.0035656292
101	0xbcc8f3a9	-0.024530249
102	0xbe2c5fbf	-0.16833399
103	0x3d768d88	0.06019357
104	0x3d409e7c	0.047026142
105	0xbda732a8	-0.08163959
106	0xbe443bfb	-0.19163506
107	0x3dc1f399	0.09470291
108	0xbd8e8254	-0.06958452
109	0x3d13fa0f	0.036127146
110	0xbd900f39	-0.070341535
111	0x3d08855a	0.0333303
112	0x3ddb711b	0.107149325
113	0x3cf28440	0.029604077
114	0xbda16570	-0.07880676
115	0x3d7b5a9f	0.06136572
116	0x3cbd8d6e	0.023138728
117	0xbadfac98	-0.0017064987
118	0xbe05a946	-0.13052854
119	0xbde7833f	-0.1130433
120	0x3d81592a	0.06315835
121	0x3e7dcd32	0.24785307
122	0x3e83317a	0.25623685
123	0x3e278323	0.16358618
124	0x3e5a5d5c	0.21324676
125	0x3e0ff735	0.14059146
126	0x3e9b1244	0.30287373
127	0x3dee0b12	0.11623205
128	0x3d843f62	0.06457402
129	0x3ca9be91	0.020720752
130	0x3e41a1f4	0.18909436
131	0x3e0e5f26	0.13903484
132	0x3e1ee344	0.15516382
133	0xbbff235f	-0.007786199
134	0x3d95761a	0.07297917
135	0x3d4948f5	0.049141843
136	0xbce963ad	-0.028489912
137	0x3e246a0f	0.16056083
138	0xbc45ac0d	-0.012064946
139	0x3e500495	0.20314248
140	0xbd4ebbd2	-0.05047209
141	0x3d8387e0	0.064224005
142	0x3db522b2	0.08844508
143	0xbd2a1ed8	-0.04153332
144	0x3df00bb7	0.117209844
145	0x3e90604e	0.28198475
146	0x3c87d993	0.01658324
147	0x3e2515ae	0.16121551
148	0x3e392e43	0.18084054
149	0x3e47b9a0	0.19504404
150	0xbc826a2b	-0.015919765
151	0xbe0d46df	-0.13796566
152	0x3e74e62a	0.23915926
153	0x3d1a6856	0.03769716
154	0xbd8f1375	-0.06986133
155	0x3df8cf00	0.12148857
156	0x3d569975	0.05239244
157	0xbdcfdd98	-0.101496875
158	0xbbbcdc32	-0.005763554
159	0x3dda780f	0.106674306
160	0x3dbf6924	0.09346226
161	0x3e6b3583	0.22969632
162	0x3d9c9aa0	0.0764668
163	0x3e33f306	0.17573175
164	0x3d9dd734	0.07707062
165	0x3d9f5fa0	0.07781911
166	0x3dd2f31d	0.103002764
167	0x3dd5117a	0.10403724
168	0xbdd92902	-0.10603525
169	0xbd2e6d46	-0.04258468
170	0x3b887d33	0.0041653155
171	0x3dc45350	0.09586203
172	0xbc26dfea	-0.010185221
173	0x3ccc13b7	0.024911745
174	0xbc6eedd2	-0.014583068
175	0x3cbef38e	0.023309495
176	0x3cf06a19	0.029347466
177	0x3d4bc4d9	0.049748275
178	0x3d8e6f79	0.069548555
179	0xbe1a7093	-0.15082006
180	0x3c403f8a	0.011733899
181	0xbd598ead	-0.05311458
182	0xbd794fd2	-0.06086714
183	0xbded5809	-0.11589057
184	0x3d5c88d9	0.053841446
185	0x3d629545	0.055318136
186	0xbe1a87b9	-0.15090837
187	0x3ce8d702	0.028422836
188	0x3cc40bce	0.02393141
189	0x3c365e0e	0.011130823
190	0xbc3d6efe	-0.011562107
191	0x3d694c0f	0.0569573
192	0x3e6c1aa5	0.23057039
193	0x3e053d53	0.13011675
194	0x3def10c2	0.11673118
195	0x3dfe439e	0.12415241
196	0x3e583451	0.21113707
197	0x3deec3d0	0.11658442
198	0x3e304d62	0.17217019
199	0x3e5f70e3	0.21820407
200	0xbac06013	-0.001467707
201	0x3e50d46a	0.2039353
202	0x3e630931	0.22171475
203	0x3e235750	0.15951276
204	0x3dfacd6e	0.12246214
205	0x3e590c2d	0.21196051
206	0xbd009613	-0.031393122
207	0x3d9e082a	0.07716401
208	0x3d792347	0.06082466
209	0x3e965bfb	0.2936705
210	0xbb77c00c	-0.0037803678
211	0x3e209ad4	0.15684062
212	0xbd609d31	-0.05483741
213	0x3e159f59	0.14611568
214	0x3e3aeafa	0.18253699
215	0x3dde1403	0.10843661
216	0x3d658462	0.056034453
217	0x3d1f3aca	0.038874425
218	0xbd9974da	-0.07492991
219	0x3daa4316	0.08313577
220	0x3dc5af06	0.09652524
221	0x3d95b420	0.07309747
222	0x3d40e8bb	0.04709695
223	0xbe29e07a	-0.16589537
224	0x3da44cef	0.080224864
225	0x3ded33c7	0.11582141
226	0x3c32015f	0.010864585
227	0x3cd77dd6	0.02630512
228	0x3d487923	0.04894365
229	0xbe3ab95d	-0.18234773
230	0xbdab5ba1	-0.08367086
231	0xbcc0b1b8	-0.023522243
232	0xba13fe66	-0.00056455133
233	0x3d8e5534	0.06949845
234	0x3e04aa9d	0.12955709
235	0x3dc3fee8	0.09570104
236	0xbd6f1f75	-0.05837961
237	0xbd99ee14	-0.07516113
238	0xbdd518c7	-0.104051165
239	0x3d19c980	0.03754568
240	0x3e8390e5	0.25696483
241	0xbda79a63	-0.08183744
242	0x3ee6ee29	0.45103577
243	0xbe19f9cd	-0.15036698
244	0x3dc7650a	0.097360685
245	0xbda3cf4e	-0.079985246
246	0x3eec1ff2	0.46118122
247	0x3ef0abde	0.47006124
248	0x3d1abb6b	0.037776392
249	0x3e32f30d	0.17475529
250	0x3f89ab7a	1.0755455
251	0x3bf7dcf0	0.0075641796
252	0xbd8d5169	-0.069002934
253	0xbd677356	-0.056506477
254	0xbdccc34e	-0.09998189
255	0x3e8df52b	0.2772611

fc2.bias f4 [48]
0	0x3e7a5db0	0.24449801
1	0xbe1fa214	-0.15589172
2	0x3e14a52d	0.14516135
3	0xbd95f86f	-0.073227756
4	0xbe01830d	-0.12647648
5	0x3dd49dfd	0.103816964
6	0xbd1334f2	-0.035939164
7	0x3d8e8e3c	0.06960723
8	0x3d02f8dc	0.031975612
9	0x38b60dff	8.681043e-05
10	0x3ddd9228	0.10818893
11	0xbdb94d97	-0.09048002
12	0x3e4ca5c3	0.19985108
13	0xbdec4046	-0.11535697
14	0x3d04dc72	0.032436796
15	0x3e994d98	0.29942012
16	0x3e5db103	0.21649556
17	0xbce01ace	-0.027356531
18	0xbe18cd28	-0.14922011
19	0x3d198931	0.03748435
20	0xbcaf0bee	-0.021367993
21	0x3dfc8002	0.12329103
22	0x3cb29110	0.021797687
23	0x3e5ef931	0.21774746
24	0xbdf260f2	-0.11834897
25	0xbdbdd8b0	-0.092698455
26	0x3d49103c	0.049087748
27	0x3e8367b5	0.2566506
28	0x3e37a90c	0.1793558
29	0x3c3130cb	0.010814856
30	0xbba5bf0c	-0.005058175
31	0xbde50155	-0.11181895
32	0x3e5f7453	0.21821718
33	0x3cbd672e	0.023120489
34	0xbd0cff62	-0.03442324
35	0xbe399c8c	-0.18126124
36	0xbdb0b4ac	-0.086282104
37	0x3df8ac4f	0.1214224
38	0x3de5a3df	0.112128966
39	0x3e133e92	0.14379337
40	0x3e8fa0fc	0.2805251
41	0x3de97ab3	0.11400356
42	0x3e6ca1ab	0.23108546
43	0xbb9030fe	-0.0044003716
44	0x3d7471c7	0.05967882
45	0x3d82fe10	0.06396115
46	0x3d90b7ec	0.0706633
47	0xbd899f37	-0.06719821

fc3.weight f4 [2, 48]
0	0xbc133c2e	-0.008986516
1	0xbc6c5130	-0.0144236535
2	0xbd6846bd	-0.056708086
3	0xbc539457	-0.012913785
4	0xbc360884	-0.011110429
5	0xbd93414d	-0.071901895
6	0x3d566b0f	0.052348193
7	0xbbb8b322	-0.0056365887
8	0xbd68a5fd	-0.056798924
9	0x3ccc1930	0.024914354
10	0xbea8ab18	-0.32943034
11	0xbc7a2d95	-0.015269657
12	0xbd1f0be8	-0.038829714
13	0xbc756d07	-0.014979607
14	0xbd57960d	-0.052633334
15	0xbdc0ed6a	-0.09420283
16	0xbe0abfa5	-0.13549669
17	0xbd6c46e0	-0.05768478
18	0xbc7d1782	-0.015447499
19	0xbdc18ebf	-0.09451055
20	0xbd7ac691	-0.061224524
21	0xbd144d32	-0.03620643
22	0xbd57def5	-0.052702863
23	0xbc123d0d	-0.008925688
24	0xbc7ccf68	-0.015430309
25	0xbb4a7df9	-0.003089784
26	0xbc61550b	-0.013753186
27	0xbdef2586	-0.11677079
28	0xbba5a509	-0.005055074
29	0x3caaad93	0.02083472
30	0xbcaf9eb5	-0.021437982
31	0xbc23c4d5	-0.009995659
32	0xbda563f0	-0.08075702
33	0xbe0f8b06	-0.14017877
34	0xbc711665	-0.014714812
35	0x3d350336	0.044192515
36	0xbde07628	-0.109600365
37	0x3d80f340	0.06296396
38	0xbd927e16	-0.07152955
39	0xbc43ae49	-0.011943408
40	0xbdca7fbb	-0.09887644
41	0xbd64ae00	-0.05583
42	0xbe12d2a8	-0.14338171
43	0xbd154c81	-0.036449913
44	0xbc32f674	-0.010923017
45	0xbc178f62	-0.009250494
46	0xb8348b80	-4.3045264e-05
47	0x3c371b2f	0.011175915
48	0xbdcbc723	-0.09950092
49	0xbb9c58a4	-0.004771309
50	0xbe2fc3db	-0.17164557
51	0x3c22c318	0.009934209
52	0xbbbf8862	-0.0058451155
53	0xbdf76f1e	-0.12081741
54	0x3da7f358	0.08200711
55	0xbba58b09	-0.0050519747
56	0xbde4bd0f	-0.111688726
57	0x3d0db2be	0.03459429
58	0xbe53667e	-0.20644566
59	0xbc72c5d4	-0.014817674
60	0xbd521a02	-0.051294334
61	0x3c218e67	0.0098606115
62	0xbd20d516	-0.039265715
63	0xbdcdd51e	-0.100504145
64	0xbe0fb2f5	-0.1403311
65	0xbd7c77f3	-0.06163783
66	0x3beb817b	0.007187066
67	0xbde69ace	-0.112599954
68	0xbd018b74	-0.031627133
69	0xbbec82e8	-0.0072177537
70	0xbd80fccd	-0.06298218
71	0xbdd262bb	-0.102727376
72	0xbb2127cc	-0.0024590371
73	0x3c0d4ff9	0.008625024
74	0x3cce40e4	0.025177427
75	0xbdceba8b	-0.10094174
76	0x3cbcac99	0.02303152
77	0xbd2568ca	-0.040383138
78	0x3c8ff69d	0.017573649
79	0x3b99cd5c	0.00469367
80	0xbdd0d551	-0.10196937
81	0xbdf0b195	-0.11752621
82	0xbc08b7ef	-0.008344634
83	0x3d3268d2	0.043556996
84	0xbde97069	-0.11398394
85	0x3cf822f6	0.030290108
86	0xbd93d2d6	-0.07217948
87	0x380bc13a	3.332014e-05
88	0xbdc0f595	-0.09421841
89	0xbc1676a5	-0.0091835605
90	0xbe0a6064	-0.13513333
91	0xbce55261	-0.027993383
92	0xbc8c44ea	-0.017122705
93	0xbc3a4f39	-0.011371427
94	0x3b3b557e	0.0028584893
95	0x3cd746f3	0.026278948

fc3.bias f4 [2]
0	0xbdbb3ef1	-0.091428645
1	0xbdf0e35d	-0.11762116

fcs1.weight f4 [24, 24]
0	0x3e0cac57	0.13737617
1	0x3dd64e15	0.10464112
2	0x3e81608b	0.2526897
3	0x3e467bbb	0.19383137
4	0xbd7e1037	-0.062027182
5	0xbd4b6a77	-0.04966208
6	0x3dc6bb1d	0.09703658
7	0x3e406c5d	0.18791337
8	0xbbde8400	-0.006790638
9	0xbccef4c7	-0.025263203
10	0xbe18340b	-0.14863603
11	0x3e0ed694	0.13949043
12	0x3c189eec	0.009315234
13	0xbdf8de51	-0.121517785
14	0x3df32943	0.118731044
15	0x3e352716	0.17690691
16	0x3d45e192	0.048310824
17	0xbdb92e0e	-0.09041987
18	0x3e4df605	0.2011338
19	0xbd05ae95	-0.032637198
20	0xbce0f822	-0.027462069
21	0xbe3bd3f2	-0.1834257
22	0xbd81bfb7	-0.06335395
23	0xbdfb442d	-0.12268863
24	0xbd483a30	-0.048883617
25	0xbe059cc4	-0.13048083
26	0xbbe203e3	-0.006897436
27	0x3ed556e2	0.4166785
28	0x3c3b3f3c	0.0114286505
29	0xbe28ff7e	-0.16503713
30	0xbd280dee	-0.04102891
31	0x3edddeb6	0.43333977
32	0x3e1b84c8	0.15187371
33	0x3bdd894a	0.006760751
34	0xbeccac72	-0.39975315
35	0x3ddc3ba1	0.10753561
36	0xbda6033a	-0.08106084
37	0xbcf559f3	-0.029950118
38	0xbe8017e8	-0.2501824
39	0x3ebfa4d1	0.37430432
40	0xbd931e07	-0.07183462
41	0x3e09f2e3	0.1347156
42	0xbe80c5a0	-0.25150776
43	0xbd88de6e	-0.0668305
44	0x3e7bd40e	0.24592611
45	0xbe6fa0f9	-0.2340125
46	0xbe33d48c	-0.17561549
47	0x3c12fa68	0.008970834
48	0x3e27ace2	0.16374543
49	0xbe6d04a8	-0.23146307
50	0x3d5d2b54	0.0539964
51	0xbe272870	-0.1632402
52	0xbd764842	-0.060127504
53	0xbed6b952	-0.41938263
54	0x3daa859f	0.083262675
55	0xbd827340	-0.063696384
56	0x3e7d933e	0.247632
57	0xbe89acac	-0.2688955
58	0xbcb3eab1	-0.021962496
59	0xbc4e0a6d	-0.012575728
60	0xbe1b7b0d	-0.15183659
61	0xbebec608	-0.3726046
62	0xbd1b3b95	-0.03789862
63	0xbe74639f	-0.23866127
64	0x3e82dee8	0.2556069
65	0xbe8fcac5	-0.28084388
66	0x3c0234dc	0.007947173
67	0xbe84e82f	-0.25958392
68	0x3d812dab	0.063075386
69	0x3d80f3ba	0.06296487
70	0xbd7c7858	-0.061638206
71	0xbe089eb6	-0.13341793
72	0x3e60f536	0.2196854
73	0xbdfacfdf	-0.122466795
74	0x3cd822cd	0.026383782
75	0xbe9953a7	-0.29946634
76	0xbe413944	-0.18869501
77	0xbbe9b062	-0.007131622
78	0x3d9283a0	0.07154012
79	0xbda3df94	-0.080016285
80	0x3e0a00ff	0.13476942
81	0x3e4f4788	0.20242131
82	0x3c7232a0	0.014782578
83	0xbcfabd07	-0.030607713
84	0x3d90570d	0.070478536
85	0xbe067803	-0.13131718
86	0x3e98f1cf	0.29871985
87	0xbd64b8b7	-0.05584022
88	0x3dfd08ba	0.1235518
89	0xbc689f50	-0.014198139
90	0x3d312119	0.043244455
91	0x3def8892	0.116959706
92	0xbdf46c88	-0.11934763
93	0xbd8434bd	-0.064553715
94	0xbd850976	-0.06495945
95	0xbc52e71f	-0.012872486
96	0x3e8f130e	0.27944225
97	0x3dadf9e1	0.08494926
98	0x3d96c9be	0.07362698
99	0x3df9f915	0.12205712
100	0x3db11436	0.08646433
101	0xbe1e3827	-0.15451108
102	0xbe590d58	-0.21196496
103	0xbdabeaab	-0.08394369
104	0x3e60cfb3	0.21954231
105	0xbe514297	-0.20435558
106	0xbdde8919	-0.10865993
107	0x3d552b3d	0.05204319
108	0xbc9c6649	-0.019091742
109	0xbd880f19	-0.06643505
110	0xbe4d4919	-0.20047416
111	0x3e54a8f7	0.2076758
112	0x3ef7ceda	0.48400003
113	0xbdf27e2d	-0.11840472
114	0xbd66de9d	-0.056364644
115	0x3dfcd629	0.12345535
116	0x3e03e345	0.12879665
117	0xbcbfe352	-0.023423824
118	0xbda4195c	-0.080126494
119	0x3dc49acd	0.095998384
120	0x3e7e22a8	0.24817908
121	0xbe114696	-0.14187083
122	0xbdbc252b	-0.09186777
123	0xbda10289	-0.07861812
124	0xbd65b450	-0.056080163
125	0xbca473d0	-0.020074755
126	0x3de173dd	0.11008427
127	0xbdc3e149	-0.09564454
128	0x3e3a10c4	0.18170458
129	0x3e63a74a	0.22231784
130	0xbce05c12	-0.027387653
131	0x3de78925	0.11305455
132	0xbd89e507	-0.067331366
133	0xbc402587	-0.011727697
134	0xbcaf641a	-0.021410037
135	0xbb090269	-0.0020905978
136	0xbdb474dd	-0.088113524
137	0xbdf2a437	-0.11847728
138	0x3e41196c	0.18857354
139	0x3d95920d	0.073032476
140	0x3d0307da	0.03198991
141	0xbe1e9c85	-0.15489395
142	0x3e2bfc52	0.16795471
143	0xbc93a989	-0.018025177
144	0x3e2feb38	0.17179573
145	0x3dfe53ca	0.12418325
146	0xbdd4c46a	-0.103890255
147	0x3e4f62c2	0.20252517
148	0x3d30a3b4	0.04312487
149	0xbe9f2cfb	-0.31089005
150	0x3c0e0422	0.0086679775
151	0x3dc4c229	0.096073456
152	0x3ea01e47	0.312731
153	0x3e0b4b6e	0.13602993
154	0x3ea6b883	0.32562646
155	0xbe5b9c5b	-0.21446364
156	0x3e69f7b0	0.22848392
157	0xbe67c569	-0.226339
158	0x3dc29181	0.09500409
159	0x3e030be1	0.127975
160	0x3eddfb4e	0.43355793
161	0x3ea2d9de	0.31806844
162	0x3d7af17c	0.061265454
163	0x3e6d9de9	0.23204769
164	0x3eacac14	0.33725035
165	0xbe67486b	-0.22586219
166	0x3d9ec8f0	0.077531695
167	0x3db60ffd	0.08889768
168	0x3e2b0557	0.16701256
169	0xbbb08c97	-0.0053878534
170	0xbbf71c35	-0.0075412043
171	0xbde8fff1	-0.11376942
172	0xbe294012	-0.16528347
173	0x3e3c49d0	0.18387532
174	0x3cd0de42	0.025496606
175	0x3d3a340b	0.04545979
176	0x3db7f403	0.089820884
177	0xbe12aa51	-0.14322783
178	0x3baa1a9d	0.005191161
179	0xbde66d57	-0.11251324
180	0x3da93355	0.08261744
181	0x3e2444f7	0.16041933
182	0x3e16aec3	0.14715104
183	0x3dc6d3cd	0.097083665
184	0xbdfc6d40	-0.12325525
185	0xbd14bcfd	-0.036313046
186	0x3d283eae	0.0410754
187	0xbe8c7fc8	-0.2744124
188	0x3d215b0c	0.03939347
189	0xbe8933c3	-0.26797304
190	0x3dd5c1bf	0.10437345
191	0x3d836b96	0.06417005
192	0x3e0c979d	0.13729711
193	0x3ebb32e3	0.3656226
194	0x3d95df6b	0.07318004
195	0xbb8803c6	-0.0041508405
196	0x3ea53c02	0.32272345
197	0xbead8f40	-0.33898354
198	0xbe23502f	-0.15948556
199	0x3cedafde	0.029014524
200	0x3e8a1e49	0.2697623
201	0x3e6d9a44	0.23203379
202	0xbe8d417e	-0.2758903
203	0xbe8e3cbb	-0.2778071
204	0x3d4ccb2e	0.049998455
205	0x3d16cabd	0.03681444
206	0xbd70f01c	-0.058822736
207	0x3c9240a4	0.017853089
208	0x3e8dd630	0.27702475
209	0x3e62bd16	0.22142443
210	0xbe677956	-0.2260488
211	0xbde8d280	-0.11368275
212	0xbe130fe3	-0.14361529
213	0xbdf85b33	-0.1212677
214	0xbdfa885a	-0.12233038
215	0xbd3e3de3	-0.04644574
216	0x3c731854	0.014837343
217	0xbdaa8005	-0.08325199
218	0x3c65ce9b	0.014026309
219	0xbe1574fb	-0.14595406
220	0xbede6afd	-0.43441
221	0x3f74647f	0.95465845
222	0xbd0ffeb7	-0.035155024
223	0x3b0214ab	0.0019848745
224	0x3e30f064	0.17279202
225	0xbdc7707a	-0.0973825
226	0xbe9ba3d6	-0.30398434
227	0x3e8ba5eb	0.27275023
228	0xbe876612	-0.2644506
229	0x3f72a4fb	0.9478299
230	0xbdc2ef91	-0.0951835
231	0x3e4ab671	0.19796158
232	0x3e2d417f	0.16919516
233	0x3e29b1be	0.1657171
234	0x3c150c19	0.009097123
235	0x3c156e4b	0.009120534
236	0xbe4feca6	-0.20305118
237	0x3f47a7a2	0.7799016
238	0xbdfdf22a	-0.12399705
239	0xbe291cb7	-0.1651486
240	0x3f089922	0.5335866
241	0x3e867966	0.26264495
242	0x3d2ec5e9	0.04266921
243	0x3e009d5b	0.12560026
244	0xbe63efa7	-0.22259389
245	0xbefb98ff	-0.49140164
246	0x3d7644f8	0.060124367
247	0x3b8f0ba5	0.004365402
248	0x3e94fcf3	0.29099235
249	0x3e803ff9	0.25048807
250	0x3d06ad3e	0.03288006
251	0x3d8fd7ba	0.070235685
252	0xbeaaefc3	-0.3338605
253	0xbe951a65	-0.291217
254	0xbe07594f	-0.13217662
255	0x3e48ce81	0.19610025

fcs1.bias f4 [24]
0	0xbe0900e6	-0.13379249
1	0xbe6a9758	-0.22909296
2	0x3caad3a7	0.020852877
3	0x3e1fc5c4	0.15602785
4	0xbea39cf1	-0.31955674
5	0xbe64ab83	-0.22331052
6	0xbec495a3	-0.38395414
7	0x3c920d44	0.017828591
8	0xbe5254ad	-0.20540114
9	0xbeac4dbf	-0.33653066
10	0xbec2a7f5	-0.38018766
11	0xbd3b8cf3	-0.045788717
12	0xbe36254a	-0.17787662
13	0xbc3991ab	-0.011326234
14	0xbda8831d	-0.08228133
15	0xbee029fe	-0.43782037
16	0xbde299c2	-0.11064483
17	0xbe1176f6	-0.14205536
18	0xbeabb7aa	-0.33538562
19	0x3cb581ab	0.022156557
20	0xbeb7988a	-0.35858566
21	0x3dd765fd	0.105174996
22	0xbe40462e	-0.18776771
23	0x3e507814	0.20358306

fc2.weight f4 [48, 26]
0	0xbca160c3	-0.01969946
1	0xbe5c1c1a	-0.21495095
2	0xbe13038a	-0.14356819
3	0xbb14f416	-0.0022728494
4	0xbe122e8e	-0.14275572
5	0x3d0c0b07	0.034190204
6	0xbde3eeff	-0.11129569
7	0xbea4108a	-0.32043868
8	0xbd6f2eaa	-0.05839411
9	0xbe804e37	-0.25059673
10	0xbe1fb249	-0.15595354
11	0xbd6bb205	-0.05754282
12	0xbe577c64	-0.21043545
13	0xbdd75b89	-0.10515506
14	0xbe365df6	-0.17809281
15	0xbd92f738	-0.071760595
16	0x3d2c3a68	0.042047888
17	0xbdbc4b37	-0.091940336
18	0xbe3a5a9c	-0.18198627
19	0xbe400099	-0.18750228
20	0xbe370c4c	-0.17875785
21	0xbe355b41	-0.17710592
22	0xbe068611	-0.1313708
23	0xbe3e4d8c	-0.1858427
24	0x3e2529be	0.16129205
25	0x3e95f073	0.2928501
26	0x3dad5bc2	0.08464767
27	0xbe768500	-0.24074173
28	0x3c6c7a30	0.014433429
29	0xbd5e8c34	-0.054332927
30	0x3d8a2cc4	0.067468196
31	0xbe78b1ff	-0.2428665
32	0xbb45e487	-0.0030196027
33	0x3d446d61	0.047955874
34	0x3c439f69	0.011939862
35	0xbe5f322f	-0.21796487
36	0x3d6014cf	0.054707345
37	0xbd649aa6	-0.055811547
38	0xbebeae36	-0.37242287
39	0xbecd0e85	-0.4005014
40	0xbdcdb046	-0.10043387
41	0xbda317c4	-0.07963517
42	0xbd9fe73b	-0.078077756
43	0xbe564eef	-0.20928548
44	0xbc83a7f7	-0.016071303
45	0xbdb5703c	-0.08859298
46	0x3c52c800	0.0128650665
47	0x3cd8cff1	0.026466342
48	0x3c0cf04a	0.008602211
49	0x3ce1fd1f	0.027586518
50	0xbd0b02a0	-0.03393805
51	0x3e1b7670	0.15181899
52	0x3cab0bf1	0.020879718
53	0xbd4d90fe	-0.050187103
54	0x3d6425ba	0.05570004
55	0xbe410b26	-0.18851909
56	0x3e218446	0.15773115
57	0x3ce67ffb	0.028137198
58	0xbda8c6e2	-0.08241059
59	0xbe78f069	-0.24310459
60	0xbb6a3a9e	-0.0035740505
61	0xbdf1d605	-0.11808399
62	0xbd28582d	-0.041099716
63	0xbdf1ff3e	-0.11816262
64	0xbc4ae95c	-0.012384739
65	0x3d80672d	0.06269679
66	0x3cb28c9f	0.021795569
67	0xbe574608	-0.21022809
68	0x3ce73876	0.028225165
69	0xbc874c70	-0.01651594
70	0xbdb772b8	-0.08957428
71	0xbe3a5d76	-0.18199715
72	0xbe725df7	-0.23668657
73	0xbe5b0149	-0.21387209
74	0x3cafcf53	0.021461165
75	0x3d069d60	0.03286493
76	0x3e1b43cb	0.1516258
77	0x3db93aca	0.09044416
78	0x3e141e03	0.14464574
79	0x3ca26327	0.01982267
80	0xbd95dd5c	-0.073176116
81	0xbdc9906d	-0.09842
82	0xbe04b53b	-0.12959759
83	0xbd8912cc	-0.06693038
84	0x3c223770	0.009900913
85	0xbe1011e2	-0.14069322
86	0xbe68e408	-0.22743237
87	0xbe7151ea	-0.23566404
88	0xbb896c12	-0.004193791
89	0xbdf0749b	-0.11740991
90	0xbdb7365c	-0.08945915
91	0xbe3cfb60	-0.18455267
92	0x3d1d6ce8	0.03843394
93	0xbe8b1d27	-0.2717068
94	0xbdcdb03d	-0.100433804
95	0x3c650f8f	0.01398076
96	0xbc98f9a4	-0.018673725
97	0x3deebd24	0.116571695
98	0x3df23458	0.1182639
99	0xbe0166fc	-0.12636942
100	0x3e0f97eb	0.14022796
101	0x3cbbc382	0.022920374
102	0x3e5f7b99	0.21824493
103	0x3e08ff64	0.13378674
104	0xbe45fb0f	-0.19334053
105	0x3cbae6cb	0.022815129
106	0xbe4f3c54	-0.20237857
107	0xbdc3b1d5	-0.09555403
108	0x3c12b1a0	0.008953482
109	0xbdf387a5	-0.118911065
110	0xbd583c94	-0.052792147
111	0xbe479f96	-0.19494471
112	0xbd9d4713	-0.07679572
113	0xbdb30aca	-0.08742292
114	0x3d5073c9	0.05089167
115	0xbdef71ee	-0.11691652
116	0xbe1bb957	-0.1520742
117	0xbd7daf36	-0.061934672
118	0xbdf9791f	-0.12181305
119	0xbd0c9996	-0.03432616
120	0xbc862e80	-0.016379595
121	0xbde25e93	-0.11053195
122	0xbdbe5421	-0.0929339
123	0xbc80ba56	-0.015713852
124	0x3d591d3b	0.053006392
125	0xbd36e757	-0.044654217
126	0xbcb56299	-0.022141742
127	0x3c9f9d63	0.019484228
128	0x3ed21f89	0.41039684
129	0x3ee46051	0.44604734
130	0x3c83dcc9	0.01609649
131	0x3b269930	0.0025420897
132	0xbe5382c6	-0.20655355
133	0x3b1679b7	0.0022960731
134	0xbbd64ec0	-0.0065401495
135	0xbd97a9f3	-0.07405462
136	0xbd63ef5e	-0.0556482
137	0xbd018ed2	-0.031630345
138	0xbbb290b7	-0.0054493803
139	0xbe6b2a87	-0.22965442
140	0x3cbc6a08	0.022999778
141	0x3ca9c215	0.020722428
142	0xbd6d74ad	-0.0579726
143	0xbd8e3eed	-0.06945596
144	0x3d69a1a4	0.05703892
145	0x3b8c3a40	0.004279405
146	0xbd13761a	-0.036001302
147	0xbda5fde9	-0.0810507
148	0xbcf8dd34	-0.030378915
149	0xbc52a1a2	-0.012855919
150	0xbd987705	-0.07444576
151	0xbca36c9b	-0.019949248
152	0xbcd4bbaf	-0.0259684
153	0xbe2d14fa	-0.16902533
154	0x3df1706b	0.1178902
155	0x3e2cdba9	0.16880669
156	0xbd8d71d6	-0.06906478
157	0xbdfbdc4e	-0.12297879
158	0x3d8c3bda	0.06847353
159	0xbe386cd4	-0.18010265
160	0x3dac249f	0.084054224
161	0xbdef49ab	-0.11683973
162	0xbd9c3912	-0.07628073
163	0xbe657e22	-0.22411397
164	0xbd9cf2b5	-0.0766348
165	0xbe60c3d6	-0.21949705
166	0xbd412bf7	-0.04716107
167	0xbcab9837	-0.020946605
168	0xbe070f01	-0.13189317
169	0x3d388ea4	0.045057908
170	0xbd7364ea	-0.05942241
171	0xbd96b51e	-0.07358764
172	0xbdc77bd2	-0.09740414
173	0x3c02423a	0.00795036
174	0xbd52ea4c	-0.051492974
175	0x3d8c0d42	0.06838466
176	0xbc9e8549	-0.019350665
177	0x3a3433d9	0.0006874181
178	0xbdb0288f	-0.08601486
179	0xbdb2a33c	-0.08722541
180	0x3ead4e66	0.33848876
181	0x3e8fc96b	0.28083357
182	0xbde7e777	-0.11323445
183	0xbde7f9f6	-0.11326973
184	0xbc12fd50	-0.008971527
185	0xbc943208	-0.018090263
186	0x3ddb7e38	0.10717434
187	0x3dd6a540	0.10480738
188	0x3dc86ee2	0.09786774
189	0xbeb0c7f0	-0.3452754
190	0xbde80f40	-0.11331034
191	0xbebdf9fc	-0.37104785
192	0x3d55f6d0	0.052237332
193	0xbed054a5	-0.4068958
194	0xbed38139	-0.41309527
195	0xbd95645e	-0.07294534
196	0xbdf9943b	-0.12186476
197	0xbd68fcc2	-0.056881674
198	0xbdba1896	-0.09086721
199	0xbeb0244f	-0.344027
200	0xbe1892b6	-0.14899716
201	0xbcded26c	-0.027199946
202	0x3df536e0	0.11973357
203	0x3b51e0c0	0.003202483
204	0xbe97038f	-0.29494902
205	0xbd2d1844	-0.04225947
206	0x3e2e47f6	0.17019638
207	0x3e212ecb	0.15740506
208	0x3d50f7b5	0.05101748
209	0xbd9da6cd	-0.0769783
210	0xbe101a87	-0.1407262
211	0x3e020af9	0.12699498
212	0x3b2f7740	0.002677396
213	0xbe297ca6	-0.16551456
214	0xbde85c2c	-0.113457054
215	0xbefa264f	-0.48857352
216	0xbe0f40c8	-0.13989556
217	0xbe6b0c2e	-0.22953865
218	0x3dcbd10c	0.09951982
219	0xbddac947	-0.10682922
220	0xbedf6477	-0.43631336
221	0xbdf103fa	-0.117683366
222	0xbe3efe8a	-0.18651786
223	0x3d4bbde0	0.049741626
224	0xbd1cfa1a	-0.038324453
225	0xbdc8dac7	-0.098073535
226	0xbd3876e8	-0.045035273
227	0x3ca89634	0.020579435
228	0x3da001c8	0.0781284
229	0xbc99acf9	-0.018759238
230	0xbd8142e1	-0.06311584
231	0xbc9c89a3	-0.019108599
232	0x3eb02cd1	0.34409192
233	0x3e73b502	0.23799518
234	0x3d831340	0.06400156
235	0xbe3ad184	-0.18243986
236	0x3d77edc0	0.06052947
237	0xbe15e186	-0.14636812
238	0x3a7e0200	0.0009689629
239	0xbc16b03a	-0.009197289
240	0xbe07b567	-0.13252793
241	0xbd8734e7	-0.06601887
242	0xbe82f220	-0.25575352
243	0xbdd73fc4	-0.10510209
244	0xbdd7eb30	-0.10542905
245	0xbc448d18	-0.01199653
246	0xbd899fb2	-0.067199126
247	0xbd6237cb	-0.05522899
248	0xbd9c87ab	-0.07643064
249	0xbd927483	-0.07151129
250	0x3d5c6c58	0.053814262
251	0xbe25fc1e	-0.16209456
252	0xbd2a3a75	-0.041559655
253	0xbe05d1ed	-0.13068362
254	0x3d814409	0.06311805
255	0x3cb08724	0.021548815

fc2.bias f4 [48]
0	0xbd603f3e	-0.054747812
1	0xbe2407d8	-0.16018617
2	0xbc8da461	-0.017290296
3	0xbe730332	-0.23731688
4	0xbe42c047	-0.1901866
5	0xbdcbabb6	-0.09944861
6	0xbd1c0e89	-0.0380998
7	0xbe285ce0	-0.16441679
8	0xbe4be595	-0.19911797
9	0xbd9b4a7a	-0.07582565
10	0x3eba460c	0.36381567
11	0xbce92cd0	-0.028463751
12	0xbe7f4525	-0.2492872
13	0x3da7874c	0.08180103
14	0xbcbab04a	-0.02278914
15	0x3db1e36e	0.08685957
16	0xbe923efb	-0.28563675
17	0xbe65ec27	-0.22453366
18	0xbe95f092	-0.29285103
19	0xbcb1dfb7	-0.02171312
20	0x3d40774e	0.046988778
21	0x3c53a30e	0.012917293
22	0x3df7ee42	0.12105991
23	0xbeaa17db	-0.33221325
24	0xbdec0157	-0.11523693
25	0xbcc48e85	-0.02399374
26	0xbca590d8	-0.020210668
27	0xbee78a71	-0.4522281
28	0xbe1d9450	-0.15388608
29	0xbeacce37	-0.3375108
30	0xbe8bcf96	-0.27306813
31	0xbe11d06f	-0.14239667
32	0xbd8cde61	-0.06878353
33	0xbe8016be	-0.2501735
34	0xbee37fc3	-0.44433412
35	0xbea96a4f	-0.3308892
36	0xbd864561	-0.06556202
37	0xbe5a3bc9	-0.21311869
38	0xbc5f9646	-0.013646668
39	0xbe432ed0	-0.19060826
40	0xbebb8bdf	-0.3663015
41	0xbebfcab3	-0.37459335
42	0xbe9621fc	-0.29322803
43	0x3d9ebf7b	0.07751366
44	0x3d9e40b1	0.07727183
45	0xbe4c1b8b	-0.19932382
46	0xbe8aa85d	-0.27081576
47	0xbe11b2b2	-0.14228323

fc3.weight f4 [1, 48]
0	0xbcebe7d0	-0.02879706
1	0x3d015532	0.03157539
2	0xbd289bcd	-0.04116421
3	0xbda44608	-0.0802117
4	0xbd516c01	-0.05112839
5	0xbcb1fd3b	-0.021727195
6	0xbd1df123	-0.038560044
7	0x3e9f0cc0	0.31064415
8	0x3e8481aa	0.25880176
9	0xbd0fe051	-0.035126034
10	0x3c816a0e	0.015797641
11	0xbd20028c	-0.03906493
12	0xbe0de561	-0.13857032
13	0xbca15f9f	-0.019698916
14	0xbc154f89	-0.009113201
15	0xbcf845b0	-0.030306667
16	0xbd44a0f2	-0.048005052
17	0x3d824921	0.063616045
18	0x3e207d39	0.15672769
19	0xbc0e06f2	-0.008668648
20	0xbd0b8b1f	-0.034068223
21	0xbd3022c9	-0.043001924
22	0x3ce56c04	0.028005607
23	0xbdbd062c	-0.09229693
24	0xbd47a8db	-0.048745017
25	0xbcd61df3	-0.026137328
26	0xbd1f82d7	-0.038943138
27	0xbd212a46	-0.039346956
28	0xbcd4e8dd	-0.025989944
29	0xbd8aff70	-0.06787002
30	0xbc9e7701	-0.019343855
31	0xbd1242e2	-0.035708316
32	0x3e5f2279	0.21790494
33	0xbcd592e0	-0.026071012
34	0xbd0e11e7	-0.03468504
35	0xbd613a15	-0.054987032
36	0xbd3039bb	-0.043023806
37	0x3d8678da	0.06566019
38	0xbcfc60bb	-0.030807843
39	0xbd479116	-0.04872235
40	0xbd388633	-0.045049857
41	0xbe7cccfb	-0.24687569
42	0xbe63e5f7	-0.22255693
43	0xbda80e91	-0.08205903
44	0xbd1c14c7	-0.038105752
45	0x3d33b459	0.043873165
46	0xbd3f16a7	-0.046652462
47	0xbd4b3cb3	-0.049618434
