actor_agent_1_checkpoint.pth (torch_old, 8606 bytes, 6 tensors)

fc1.weight f4 [24, 24]
00000000: 1380 81be 70bf 9dbe c045 cf3c daf2 d7bd
00000010: ffa4 49be 30ef c9bc 55a8 20bd f239 89be
00000020: 1944 51be 42ee bcbe aa54 81be f3c0 2ebd
00000030: fd18 e73d b698 583d b066 d03d 32ee 94be
00000040: 9f14 b3be 2f05 9ebe a2a5 303d 4350 f13e
00000050: 4a5e 343f ce92 6d3f 442a edbc 3370 983e
00000060: a62c 2abd 4698 e33e 88fd 48bd e7f2 a23e
00000070: f73e 92be 7161 98bd 3ace 73bd ff55 3a3e
00000080: b387 d8be 27d5 bebd 6c1a 9bbd 06c4 3f3e
00000090: c5c2 ba3d 5a60 56bd 0b1a dabb 00bc 2f3e
000000a0: 7aa6 76be 4cba ea3d 5905 0dbe bf7f c03d
000000b0: 231b 643e f4e3 03bf 6bb2 23bc 1b35 2e3e
000000c0: e60f 73be d1a2 4ebe 15b1 ae3d 8d83 8abe
000000d0: ec8d 893e fb92 0a3e c192 a23d 6176 50be
000000e0: f456 9abe 4a57 2dbf c291 b73c aa00 b5be
000000f0: cd60 0ebe 4fa7 dc3e d70a 753d 76cc 9bbe
00000100: c1e0 b8be 72b4 1fbf 4b1d 6dbb f28c e9be
00000110: 36c5 9dbe 92e8 423f d9d6 bfbd 04b7 f5be
00000120: d954 783c 67d4 123f 26a9 7b3b e068 d8be
00000130: 1b34 9fbe 49f7 abbe 32f0 a73c 3834 babd
00000140: 9bd2 253e 48df 0c3f be8a b0bd 3754 9dbe
00000150: a3a1 1abd 5f39 f2be 20e6 383e 97ec 5ebe
00000160: 281d 8d3e 98e8 f13e f2f7 2bbd 7df3 b5be
00000170: 24e4 30be e012 4cbf f983 0a3d c6df 15bf
00000180: f165 04be e59c 21be 2bcb d1bc 4978 1a3e
00000190: b720 4dbf dda8 773e 6b6b 973d 3fbb 373e
000001a0: 7a9b dd3c 4305 33be e418 0b3e 0949 debd
000001b0: 5cd5 ccbe 1bdf 733e abd3 b8bd ea09 2a3e
000001c0: a2de 13be 708c 99be 2ad2 0cbe 7adf 08bf
000001d0: c04a a83e 9fa8 873e bb13 3abc 4ed8 f0be
000001e0: 5dad a33c ce62 813f 4f05 9abe 8740 51bc
000001f0: 1790 80be 7d27 a93d 38ab a6bd 8745 f53d
00000200: c3fb 193e d93f 5f3f 6b69 41be 2683 383d
00000210: 00ff 17be c04e 913e b140 5bbe 99d3 bcbd
00000220: 4406 15be 94c3 513f c17c 613d 9620 0bbe
00000230: 8325 b43e 1d5c d9bd fc27 99bd 4023 00bd
00000240: 571c b73c 60fe 67be 44fb a53d 60fc d9bd
00000250: c518 bd3d 9664 883e 72e8 ffbd d4ee 4dbe
00000260: ae84 5ebe fe09 d0be 8a02 e8bc 5b35 3fbe
00000270: b8e7 8bbe 5541 133f f85e 023e 66cb 853d
00000280: 3e65 51be 9e9a 00bf be57 7f3c b913 963e
00000290: 1e27 cebe fcf2 5d3f ce81 42bc 27d5 d33e
000002a0: 8f7b febe 9a0e b7be 9e77 733d 3418 eebe
000002b0: 584e c1bd 37e1 c13e 28ba 2d3d 67d9 6ebe
000002c0: f18f 42bd f002 b3be e04e 073d c2a5 b6bc
000002d0: bfba 853e 5a0a 64be 162a a8bd 01cd 5dbd
000002e0: 3288 ffbe 4050 36be 8f9e 113d 4581 803e
000002f0: 3bc0 8c3e 23cb 96be f659 63bd ae42 323e
00000300: 1124 17be 9603 acbe ed39 553e 56fc aabd
00000310: ea1d 23be 4e32 2e3c a970 d03d 27d2 033e
00000320: 7cb9 1abe 7a47 593e a051 4fb9 050a dcbd
00000330: 3b94 62be 92f5 07be 133c af3e e224 373d
00000340: 02e1 703c 5a03 4bbe 8e07 7d3e 9b8a a3be
00000350: ecec b9be ed50 40be 83e0 d43d 970d 88be
00000360: 82f4 bb3d 9f7c 123f 41b0 19be 778f 6cbd
00000370: 2439 99be ce26 f2bc 26df 153c bb40 063e
00000380: afe0 09be 3532 473f 8725 99bd 7895 cd3d
00000390: a92d 633f e6de e33e 7a0e 0a3e 4b60 41be
000003a0: 74aa cabd ef2c 903f 112b 46be 4736 7fbd
000003b0: b66a cb3f 0ddc 523f 498b 143e ada7 95be
000003c0: 6376 a13d 98e6 07be 171b fdbd 3071 fbbd
000003d0: 17e0 0c3e 8e6e 1a3e bf2e b9bd 8e2f a8be
000003e0: bec3 4cbd 5d81 8dbe 8111 86be 3012 3bbe
000003f0: 0be8 ab3e f8ca 243f ba88 0a3d 9297 04be
-0.25293025 -0.30810118 0.025301814 -0.10544367 -0.19691847 -0.024650186 -0.039223034 -0.2680202
-0.20436133 -0.36900526 -0.25259906 -0.04266448 0.11284063 0.05288001 0.10175836 -0.2908798
-0.3497667 -0.3086333 0.04312671 0.47131547 0.70456374 0.9280213 -0.028950818 0.297731
-0.041546486 0.44452113 -0.04906991 0.31825945 -0.28563663 -0.074404605 -0.059522845 0.18196867
-0.4229103 -0.09317999 -0.07573399 0.18727121 0.091191806 -0.05233798 -0.0066559366 0.1716156
-0.24086943 0.114613146 -0.13771571 0.09399366 0.22275977 -0.51519704 -0.009991269 0.17012446
-0.23736534 -0.20179297 0.085298695 -0.2705349 0.2686609 0.13532631 0.07938147 -0.20357658
-0.30144465 -0.6771132 0.02240837 -0.3535207 -0.13904114 0.43096396 0.05982479 -0.3042943
-0.36108974 -0.6238471 -0.003618079 -0.45615345 -0.30814523 0.76136124 -0.09367151 -0.47991192
0.015156948 0.5735535 0.003840038 -0.42267513 -0.3109444 -0.335871 0.020500276 -0.09091991
0.16193621 0.550282 -0.08620213 -0.30728313 -0.037751805 -0.47309396 0.18056536 -0.2176994
0.27561307 0.47247767 -0.041984506 -0.3553733 -0.17274529 -0.797163 0.033817265 -0.58544576
-0.12929513 -0.15782507 -0.025609573 0.15084948 -0.80128044 0.2418551 0.07393535 0.17942522
0.027051676 -0.17482476 0.13583714 -0.10853774 -0.4000653 0.23815577 -0.090247475 0.16605344
-0.14440396 -0.29989958 -0.13752046 -0.53466 0.3286953 0.26495835 -0.011357243 -0.47040027
0.019980127 1.0108278 -0.30082175 -0.012771732 -0.25109932 0.08259485 -0.08138126 0.11976152
0.15037446 0.872068 -0.1888787 0.045046948 -0.14843369 0.28380394 -0.21411397 -0.092200466
-0.14553171 0.81939054 0.055050615 -0.1358665 0.3518487 -0.10613272 -0.074783295 -0.031283617
0.02235238 -0.2265563 0.08104566 -0.1064384 0.0923324 0.2663924 -0.12495507 -0.20110637
-0.21730301 -0.40632623 -0.028321523 -0.18672697 -0.27325225 0.57521564 0.1273154 0.06532936
-0.20448777 -0.5023593 0.015584884 0.29311922 -0.4026422 0.8669889 -0.011871768 0.4137356
-0.49703643 -0.35753328 0.059440248 -0.4650284 -0.09438771 0.37867138 0.04241386 -0.2332512
-0.047500554 -0.3496318 0.033034205 -0.022295836 0.26119038 -0.22269574 -0.08211152 -0.054150585
-0.49908596 -0.1780405 0.035551604 0.25098625 0.2749041 -0.29451856 -0.055505715 0.17408249
-0.14759852 -0.33596486 0.20822878 -0.083489105 -0.1592938 0.010632111 0.10177738 0.12873136
-0.15109819 0.21218672 -0.00019771466 -0.107440986 -0.22126858 -0.13277271 0.3422552 0.04471291
0.014702084 -0.19825497 0.24709913 -0.31941685 -0.3631357 -0.1878087 0.10394385 -0.26572868
0.091774955 0.57221407 -0.15008642 -0.057754006 -0.29926407 -0.02955952 0.009147441 0.1311063
-0.13464616 0.77810985 -0.07477861 0.100382745 0.88741547 0.44505996 0.13482085 -0.18884389
-0.098957926 1.1263713 -0.19352366 -0.062307622 1.589194 0.8236702 0.14506258 -0.2922949
0.078839086 -0.13271558 -0.123586826 -0.12277448 0.13757358 0.15081236 -0.09042119 -0.3284878
-0.04999136 -0.2763776 -0.2618523 -0.18268657 0.33575472 0.64372206 0.0338218 -0.12948444

fc1.bias f4 [24]
00000000: a41d 973e 50fe 3ebe 5fd0 263e 9dfd 413e
00000010: 735e be3e 9b48 fd3d 4d1c bfbc 8ae6 ad3e
00000020: a3c5 973e 8c39 c9bd 5307 543d 373e 753e
00000030: 7e9c f53e 030b 183f d65c 96bd d220 54bc
00000040: 5057 8ebe 2888 363e d7db 40bc fa26 a83d
00000050: d89b 313e f022 1f3f 2370 f33e 764e 8d3e
0.29514802 -0.186517 0.16290425 0.18944402 0.37181434 0.12367364 -0.023328925 0.3396495
0.29642972 -0.09825429 0.051764797 0.23949514 0.47970957 0.593918 -0.07341926 -0.012947278
-0.2780099 0.17825377 -0.011771164 0.08210559 0.17344606 0.62162685 0.4754649 0.27598923

fc2.weight f4 [48, 24]
00000000: 39ff 963e a8a3 c3be 002e 1c3d d707 c63d
00000010: 2045 21be fb80 cabd 3872 3c3e e711 9c3e
00000020: 24c5 ecbd d4c4 ca3d ac3d b13d 4de6 f7be
00000030: 1939 013e 6fa0 b3be 7d16 83be 1235 703d
00000040: 3265 3abe 016f 41bd 1985 903d c9ac a73e
00000050: da9f 983d 4208 e13b 9638 ce3e 3e46 b83e
00000060: a63b 11bf 3119 1e3e f1e4 dabc 4e66 ee3e
00000070: 34cc 3d3e df4d c53e 4f3c eebe b854 15be
00000080: 8d5b 9c3e 4bae 88be 1408 c9be 41f6 6f3e
00000090: 5519 3939 ee82 203f bf7f 5f3d 26e7 55bd
000000a0: 30c7 143d 07ba 573d 8081 493e 2730 d1be
000000b0: f94d 6a3e 4bab a9bd 6bc2 763c 2244 613e
000000c0: c26d 303e 82f8 3e3d 5cb3 ce3d 8fa1 2b3e
000000d0: 862b 473e bbb0 0fbd fd74 bfbc 88ce 553e
000000e0: 5e6d 3f3e 3e34 ca3d 00e9 acbd 38cd ec3d
000000f0: d11b d23e 58f6 df3e 3bbe 1d3d cfb6 973d
00000100: 6a4a fd3d ce48 efbc 7f26 a73d f4c4 3abe
00000110: 49e6 db3c da39 1d3c f3bb 7a3d 284b a1be
00000120: c92e 2dbf 9b43 253e 1743 09be 0535 2dbd
00000130: 6603 463b 709f 69bd 98ad a4be d546 82be
00000140: 147f 3f3e 8fb5 edbd 705f 44be 90d6 f53c
00000150: 64e9 bdbd d54a f6bd 66e6 d3be f85c 03bf
00000160: b169 723e 70e1 5abe 970b 0bbf 0ad2 f7bc
00000170: 26bf d7be 4a69 8b3b ba93 053e fb5c 54be
00000180: 23bb 9a3e 8f1f f5bd dd75 023e d756 f63d
00000190: cf2f 9cbd a782 0c3d 850e ecbe ed4c da3e
000001a0: 68c7 003e e88a 4f3f 4f55 e1bd 0769 843c
000001b0: 44d2 613d 2b31 c23e 65ae cdbd aa4a 493e
000001c0: 0455 833e 3ae5 a93e 537d 983e b060 50be
000001d0: 2798 06be 746f 2f3c 86e4 a2be 5559 013e
000001e0: 45f2 c2be b613 84bd 420a 01be caca 353c
000001f0: a614 62be 9407 a3be 009c be3d d3f9 053f
00000200: 8af8 12bf 234a 0fbf 3a57 d83c 088d 47be
00000210: 3717 3a3e 0811 c8be e1cb 9ebe 84aa 12bf
00000220: 79fd c3be 16b3 aebe ff11 50be 4807 a5bd
00000230: 573e 89be 141f 1cbf f988 86bc d94c dbbd
00000240: b1d9 fcbe 94d2 2d3e 4876 4b3d 349c 243f
00000250: d855 60be ba19 0b3e b6a6 d13c b534 49bf
00000260: 3701 e43e 46df 91bd 0b6e 0bbe 6345 01be
00000270: 7eb3 1bbe f85b 87be 3bdd d13c 32b2 523e
00000280: dbad f0be 5a8e ec3c a374 823a f09c 5f3d
00000290: 8ced 973d d876 3abe c8f0 de3d 97b4 2a3e
000002a0: ae4b 083f 8984 05be 1cbf c43d ed38 183f
000002b0: 0ed1 633e ae91 883c a064 11bd d2d9 00be
000002c0: 4a8a 22bd 8ffe dbbd 25df 3bbd 9b21 e8be
000002d0: 0725 a1be 4a5d d1be f100 a53c 4012 e4be
000002e0: 30ba 123e 60cd 6a3e c190 64be 1022 d1bd
000002f0: 5e61 783e c602 403d dbbe 93be 6788 5c3e
00000300: 1c1a cabe bac1 d8be 487a 2e3e 1479 c53e
00000310: a364 20bd 8b31 8fbe 84ee d53d e0fa 8a3d
00000320: 12b3 b33e f7b7 3abf b313 583b b9bd d4bd
00000330: 42e6 f0bd c78a 67be c3ca 68be 1d65 443e
00000340: 7ebd f3bd 0a71 c0be 1672 c7be e55c 5cbd
00000350: fd0d 673e a959 9e3d 13e6 663e 8e09 e33b
00000360: cb58 8b3e 1738 ef3c 3f54 ea3d 38b6 b23e
00000370: 42a7 a53b 7666 81be c801 6f3d 25e5 8b3c
00000380: 5b9a b03e 6f2f 5f3d 895e c53d e223 58bc
00000390: f2b3 5c3d e75a 143e 1029 15be 4aa7 4abe
000003a0: f396 8e3e 004c 9f3e 2aa9 55bf c41c f63d
000003b0: 66a0 92be 00ea a5bd be0a cbbd 407b d63c
000003c0: 4a88 c5be 34aa 8fbd 9b7c 203e d191 38be
000003d0: 907d 23be b253 4fbe a5eb 7b3d 5330 eb3d
000003e0: 4a6c f73d ef1d 4e3e b2ec e53e b91e bc3d
000003f0: 2616 1a3e ef9c c4be a1dd 2b3e 5a82 dd3e
0.29491594 -0.38210797 0.038129807 0.09669464 -0.15749025 -0.09887882 0.18402946 0.30482408
-0.11561039 0.09900823 0.08654341 -0.48417893 0.12619437 -0.3508334 -0.25603095 0.05864436
-0.18202665 -0.047225002 0.07056636 0.32749012 0.07452364 0.0068674395 0.40277547 0.3599109
-0.5673164 0.15439297 -0.026720496 0.46562427 0.18534929 0.38535973 -0.46530387 -0.14583099
0.30538598 -0.26695475 -0.39263976 0.23433782 0.00017652412 0.6269978 0.054565188 -0.052222393
0.036322773 0.052667644 0.19678307 -0.4085705 0.22881307 -0.08284625 0.015061001 0.21998647
0.1722937 0.046623714 0.10092804 0.16760848 0.19450197 -0.035080653 -0.023371214 0.20879567
0.18694064 0.09873246 -0.08442879 0.1156258 0.41036847 0.43742633 0.038511496 0.07407915
0.12367709 -0.02920952 0.081616394 -0.18239194 0.026843207 0.009596312 0.0612144 -0.31502652
-0.67649513 0.1613907 -0.13404499 -0.04228689 0.0030214428 -0.057036817 -0.32163692 -0.25444666
0.1870082 -0.11606895 -0.19177032 0.030009538 -0.09273031 -0.12025992 -0.41386718 -0.51313734
0.2367313 -0.2137506 -0.5431456 -0.030251522 -0.42138022 0.004254495 0.13044634 -0.20738594
0.302209 -0.1196891 0.12740274 0.12028282 -0.07626306 0.034304287 -0.46104828 0.42636815
0.12576067 0.8107133 -0.110025994 0.016163362 0.055132166 0.37928137 -0.10043029 0.19657388
0.256508 0.33182698 0.29783115 -0.20349383 -0.13143979 0.010707725 -0.31814975 0.12631734
-0.38075462 -0.06449072 -0.1260157 0.011095712 -0.22078189 -0.3184172 0.093070984 0.52334327
-0.5741049 -0.559725 0.02640878 -0.19487393 0.18172918 -0.39075494 -0.31014922 -0.57291436
-0.38279322 -0.34121007 -0.20319365 -0.080580294 -0.26805374 -0.6098492 -0.016422736 -0.10708017
-0.49384835 0.1697486 0.04967335 0.6430085 -0.21907747 0.13584033 0.02559219 -0.7859605
0.44532177 -0.07122664 -0.13616197 -0.12624125 -0.1520519 -0.26437354 0.025618186 0.20575789
-0.4700764 0.028876472 0.0009952973 0.054593027 0.07418355 -0.18209398 0.10885769 0.16670452
0.5324048 -0.1303884 0.09606764 0.5946186 0.22247717 0.016671028 -0.035496354 -0.12583092
-0.039682664 -0.107419126 -0.045867104 -0.4533814 -0.31473562 -0.40891486 0.02014205 -0.44545174
0.14328837 0.22929907 -0.22320844 -0.10211575 0.24255893 0.046877645 -0.2885655 0.21536408
-0.39473045 -0.42335302 0.17038834 0.38568938 -0.039158475 -0.27967486 0.10445884 0.06786132
0.35097557 -0.7293696 0.0032970726 -0.10387749 -0.11762668 -0.22611533 -0.22733597 0.19179197
-0.11901377 -0.37586242 -0.38954228 -0.05379953 0.2256393 0.07731945 0.22548704 0.0069286292
0.2721618 0.02920155 0.1144185 0.34904647 0.005055339 -0.25273484 0.058351308 0.017077038
0.34492764 0.054488596 0.09637172 -0.013192149 0.053882547 0.14487801 -0.14566445 -0.19790378
0.2784954 0.3111267 -0.8346125 0.12017205 -0.28638 -0.081012726 -0.09914158 0.026181817
-0.38580543 -0.070148855 0.15672533 -0.18024375 -0.15965867 -0.20246771 0.061504025 0.114838265
0.120812014 0.20128606 0.44907147 0.091855474 0.15047511 -0.3840098 0.16783763 0.43263513

fc2.bias f4 [48]
00000000: bb86 4b3e 4563 66be f70b b33e eae0 76be
00000010: 6388 c3be 684d 8ebe f6cb 9dbd e693 453e
00000020: d0db 46bd 7bbd 1e3e fd87 42be 6b64 bdbd
00000030: 806c 0b3e 2475 18bf 974f 83be 179f 403e
00000040: 62b4 603e 1537 5ebe 3c81 e83d 2aea c7bc
00000050: 48a2 13be 8999 c03e 6ecf 87be ba3b df3d
00000060: 8d7e f13d abb4 4e3e 39d8 693d 78b7 013d
00000070: 8267 74bd 1c12 c1bd fae9 873e 0c77 c2bd
00000080: f555 a83d a58e a23d 0f70 04be 8c71 583e
00000090: 5cb9 8d3d a555 ad3e 704f c1bd db49 aabd
000000a0: 9479 023f 2abb 9c3e 8ca4 3dbe 34cb 14bd
000000b0: 7343 953e d21d 41be 14cb df3d b970 0f3d
0.19875614 -0.22498806 0.34970066 -0.24109235 -0.38189992 -0.2779343 -0.07704918 0.192947
-0.048549473 0.15501969 -0.18997188 -0.09247669 0.13615608 -0.5955374 -0.2564666 0.18810688
0.2194381 -0.217007 0.113527745 -0.02440365 -0.14417374 0.37617138 -0.26525444 0.10900064
0.11791716 0.20186107 0.05709097 0.03166911 -0.059669025 -0.09427282 0.26545697 -0.09495363
0.0821952 0.079373635 -0.12933372 0.21137065 0.0692012 0.33854404 -0.094389796 -0.08314868
0.50966763 0.30611545 -0.18519801 -0.036326602 0.29153022 -0.18859032 0.10927406 0.03501961

fc3.weight f4 [2, 48]
00000000: 7d68 41be 4dc4 943e 3253 063e 21ca d8be
00000010: 16db 4ebf 41db e73e 6012 d0be 2351 823f
00000020: c270 fabd 67fe 783e b840 c8be 358a d33e
00000030: 0f98 23bf 07ed 8abf b3ea 6dbf 2a1a f2be
00000040: 9d5e e9be 2980 88be 68c6 833e 31d3 d2be
00000050: fb69 81be d788 083f 2373 32bd 6ccf bbbe
00000060: 3008 0a3e 5828 e53d f0bb 60bf eb86 1dbe
00000070: 038e 84bd 51e7 c7bd 7b1d 903e 7662 6dbf
00000080: 11fa bbbe 6ddb 8a3e 2ae5 4cbe 3fcb d43d
00000090: baf8 953d 1967 e23d e069 d0be bc0f 3dbf
000000a0: cbe4 143d e8d7 593e 45cf 273f 64d7 9b3e
000000b0: f72d 403e 23dd fd3e 8ece d7be 9dd3 013f
000000c0: 608b 133f 9d19 943f 835a 72be 75a0 5f3e
000000d0: 8d59 94be 841f 223f d837 2bbf 257c 07bf
000000e0: 6aff 913f 2d22 52bf 1a60 09bf dc9f 653f
000000f0: 7b23 fcbe cb66 3abf 42e7 5a3f db2b 01bf
00000100: 2675 09bf 7368 f3bd 09e1 0f3d f732 c4bd
00000110: 4778 ac3e 0e40 42be c807 a43e bd28 a7be
00000120: 7135 15be 89fc 7d3c 9c7c 0fbf ea1b af3e
00000130: a0c0 5c3d a1db ccbd f4b8 613d 4af0 01bf
00000140: 6f62 32bf aad2 ba3e 5202 8dbe 8d53 8bbe
00000150: be38 1cbf 86f2 563f f835 473e 9276 0fbf
00000160: b148 f0bd 88cc 81be 9708 f33d 8a42 aabe
00000170: 5f78 493d 7f8e fa3e 1cfb b0be b1ed 5e3d
-0.18887515 0.29056016 0.13117674 -0.42341712 -0.8080305 0.45284465 -0.4063902 1.0181011
-0.12228538 0.24315797 -0.39111876 0.4131638 -0.639039 -1.0853585 -0.9293625 -0.47285587
-0.45579997 -0.26660278 0.2573731 -0.4117675 -0.2527617 0.533338 -0.043566834 -0.36681688
0.13479686 0.111893356 -0.8778677 -0.15383498 -0.06472399 -0.09760917 0.28147492 -0.92728364
-0.36714223 0.27120534 -0.20009294 0.103903286 0.073228315 0.110548206 -0.40705776 -0.73852134
0.036351006 0.21273768 0.65550643 0.30437768 0.18767534 0.49582776 -0.42149776 0.5071352
0.57634544 1.1570317 -0.2366734 0.21838553 -0.28974572 0.6332934 -0.66882086 -0.52923805
1.1406071 -0.820834 -0.53662264 0.8969705 -0.4924582 -0.728131 0.8550912 -0.50457543
-0.5369438 -0.118851565 0.03512672 -0.09580033 0.33685514 -0.18969747 0.32037187 -0.32648268
-0.14571168 0.015502104 -0.56049514 0.34200984 0.05389464 -0.100028284 0.055108026 -0.50757277
-0.6968145 0.3648885 -0.27540833 -0.27212182 -0.6102408 0.8396381 0.19454181 -0.560403
-0.11732615 -0.25351357 0.11866873 -0.3325389 0.04918706 0.4893684 -0.3456658 0.0544259

fc3.bias f4 [2]
00000000: b872 1a3e 69a1 06bf
0.15082824 -0.5259004
