actor_agent_0_checkpoint.pth (torch_old, 8606 bytes, 6 tensors)

fc1.weight f4 [24, 24]
0	0x3db82dfe	0.08993147
1	0x3dc78a8a	0.09743221
2	0x3dffb727	0.124861054
3	0x3e21652a	0.15761247
4	0x3db4fc5f	0.088371985
5	0x3d851bc7	0.06499439
6	0x3d772538	0.06033823
7	0xbba2c151	-0.004966893
8	0xbe63b6d9	-0.2223772
9	0xbe57ea51	-0.21085478
10	0xbc908f95	-0.01764659
11	0x3ec41f96	0.38305348
12	0x3f01ddc5	0.5072902
13	0x3d9c2314	0.07623878
14	0x3eac6594	0.33671248
15	0x3e0a124b	0.1348354
16	0xbd05cd0d	-0.032666255
17	0xbca17857	-0.019710703
18	0x3dbafb92	0.091300145
19	0x3d3be5ce	0.045873456
20	0x3f96524e	1.1743867
21	0x3e93f46e	0.28897423
22	0x3c9d7266	0.019219588
23	0xbe02c879	-0.12771787
24	0x3c33fb93	0.010985273
25	0x3e9ec977	0.3101308
26	0x3d1b8646	0.03796985
27	0x3e157759	0.14596309
28	0xbd03a80a	-0.032142676
29	0x3de2b31c	0.11069319
30	0x3ce16c7f	0.027517555
31	0x3c1e7f0d	0.009673846
32	0xbddccfc6	-0.10781817
33	0xbd6b67c3	-0.057472
34	0x3ca3cdbc	0.019995563
35	0x3df501c9	0.11963231
36	0xbe40d8ce	-0.18832704
37	0x3e177f9c	0.14794773
38	0x3db669b1	0.08906878
39	0x3dd4f1c5	0.103976764
40	0xbdf81bc9	-0.121146746
41	0xbd85cd66	-0.06533317
42	0xbd9bacec	-0.076013416
43	0x3e0f274f	0.13979839
44	0xbf38053e	-0.71883
45	0x3db966cf	0.09052812
46	0x3d53d609	0.05171779
47	0x3e5d1dd9	0.21593417
48	0x3e384c38	0.17997825
49	0x3f30414f	0.68849653
50	0x3cc0f95a	0.0235564
51	0xbe7235b3	-0.23653297
52	0xbe99566d	-0.2994875
53	0xbe3fcecd	-0.18731232
54	0x3c907f78	0.017638907
55	0xbe2da315	-0.16956742
56	0x3e6e6fb5	0.232848
57	0x3f14b52b	0.5808894
58	0x3dbfa580	0.093577385
59	0xbdb1ecc3	-0.08687737
60	0xbe848934	-0.25885928
61	0xbf173786	-0.590691
62	0x3e06232a	0.13099352
63	0xbd1a36ff	-0.037650105
64	0x3d234e6c	0.03986971
65	0x3f3df129	0.74196106
66	0x3d506527	0.050877716
67	0xbec5fa06	-0.38667315
68	0xbe28fe90	-0.16503358
69	0xbf9111e5	-1.1333586
70	0xbd20743d	-0.039173353
71	0xbed22400	-0.4104309
72	0xbeac2d29	-0.33628204
73	0x3cd6c08f	0.026214866
74	0xbc163e18	-0.009170078
75	0xbe87fae6	-0.26558608
76	0xbe4db121	-0.200871
77	0x3e802728	0.25029874
78	0x3bf56dc9	0.007489894
79	0x3d8781db	0.06616565
80	0xbe0b8e66	-0.1362854
81	0xbb5cb860	-0.0033679232
82	0xbe1b7674	-0.15181905
83	0xbe7568aa	-0.23965707
84	0x3c38e55c	0.011285152
85	0xbd9fd0b0	-0.07803476
86	0x3deb69f4	0.11494818
87	0xbe19a8aa	-0.15005746
88	0x3b84f2c4	0.00405726
89	0xbd30739c	-0.043079004
90	0xbd95ae85	-0.073086776
91	0x3e882ae5	0.26595226
92	0xbd01153a	-0.031514384
93	0xbf4d4299	-0.80179745
94	0x3b31d65e	0.002713583
95	0x3d12f791	0.03588063
96	0xbe115cc2	-0.1419554
97	0xbc9d68a9	-0.019214945
98	0x3c01142d	0.007878345
99	0x3c0b9fd7	0.0085219955
100	0x3e9cb2b2	0.30605084
101	0x3de70b68	0.112814724
102	0x3ddbffdc	0.10742161
103	0x3d17f103	0.03709508
104	0x3d6b7590	0.057485163
105	0xbe12bd78	-0.14330089
106	0x3e0cf4de	0.13765284
107	0xbe1f07aa	-0.15530267
108	0x3e849a5e	0.25899023
109	0x3ea9c005	0.33154312
110	0xbdb51dc5	-0.08843569
111	0x3df450db	0.119294845
112	0xbdbebcad	-0.09313331
113	0xbf00feba	-0.5038868
114	0xbd7d51eb	-0.0618457
115	0xbee3e86c	-0.4451326
116	0x3f1448f0	0.57923794
117	0x3f439805	0.7640384
118	0x3d83ba7a	0.06432052
119	0xbec300a6	-0.38086432
120	0xbe17f7bf	-0.14840601
121	0x3dc962b1	0.09833277
122	0xbded4fc5	-0.115874805
123	0xbd4c7634	-0.049917415
124	0xbf6e9add	-0.9320505
125	0xbe25b276	-0.16181359
126	0x3dd4204b	0.10357722
127	0x3da934bb	0.08262011
128	0x3df3771f	0.11887955
129	0x3d8016d3	0.062543534
130	0x3c14b1bd	0.009075579
131	0x3e3a7d30	0.18211818
132	0xbe9529c7	-0.29133436
133	0x3e3bff65	0.18359144
134	0xbc845e5e	-0.016158279
135	0x3d37d226	0.044878148
136	0xbe031aa5	-0.12803133
137	0x3d6f0f94	0.058364466
138	0x3d8e5088	0.06948954
139	0xbe4ae1be	-0.19812676
140	0x3e6cd166	0.23126754
141	0x3d4c664b	0.04990224
142	0xbd77280c	-0.060340926
143	0xbdbf90cc	-0.0935379
144	0x3d941d5b	0.072321616
145	0xbeb54e78	-0.3541143
146	0x3dac9243	0.08426335
147	0x3b932beb	0.0044913194
148	0xbea5239c	-0.3225373
149	0x3d069a9d	0.032862294
150	0xbdf95277	-0.12173932
151	0xbdb8ae92	-0.09017672
152	0xb8bce752	-9.007625e-05
153	0xbe9756f3	-0.29558524
154	0xbdc5c888	-0.09657389
155	0x3ca3ff23	0.02001912
156	0xbd788bdc	-0.060680255
157	0x3e422128	0.1895796
158	0x3d71e800	0.059059143
159	0x3e8b4d3d	0.27207366
160	0x3b80c0e7	0.0039292458
161	0xbeeeba23	-0.46626386
162	0x3caed167	0.021340085
163	0xbcadcc6d	-0.021215642
164	0x3edf84a6	0.4365589
165	0x3f2bcab5	0.6710618
166	0xbbc86e5c	-0.0061166715
167	0x3dcb99a6	0.099414155
168	0xbe7e9ce7	-0.24864541
169	0x3df1ddff	0.118099205
170	0x3d2a35d8	0.041555256
171	0x3d3319ea	0.043725885
172	0xbe1d1849	-0.15341295
173	0x3f0d2498	0.5513396
174	0x3cc8f0b9	0.024528848
175	0x3e8d0e36	0.27549905
176	0x3e07d67a	0.1326541
177	0x3ebadf0e	0.36498302
178	0x3d2c8517	0.042119112
179	0x3d671b76	0.056422673
180	0x3c6c9d46	0.014441794
181	0xbcb53380	-0.022119284
182	0xbd958fd1	-0.073028214
183	0x3cc94478	0.024568781
184	0xbe8936e6	-0.26799697
185	0x3f1abb2f	0.6044187
186	0x3d2ebbed	0.04265969
187	0xbda7baf8	-0.08189958
188	0x3e81d2af	0.2535605
189	0x3df8d492	0.121499196
190	0xbd463c4d	-0.04839735
191	0xbe229b55	-0.15879567
192	0xbe1e694b	-0.15469854
193	0xbeafc90f	-0.34333083
194	0x3dba0cd7	0.0908448
195	0xbdf02ed5	-0.117276825
196	0x3f0ed113	0.5578777
197	0x3f06a15d	0.5258997
198	0xbc7fa623	-0.015603575
199	0x3dc275d3	0.094951294
200	0xbe90d495	-0.28287187
201	0xbe2b7ff0	-0.16748023
202	0xbe12c225	-0.14331873
203	0x3c03cdf4	0.0080447085
204	0x3e5d20cb	0.21594541
205	0x3e3d67de	0.18496653
206	0x3e4be659	0.1991209
207	0x3e240bae	0.1602008
208	0xbd8cf3bb	-0.068824254
209	0xbee2cd46	-0.44297236
210	0x3d9044f8	0.07044405
211	0xbe0ce504	-0.13759238
212	0x3e7107f9	0.23538198
213	0xbf49be70	-0.7880621
214	0xbd94e830	-0.07270849
215	0xbdabd34b	-0.0838991
216	0xbd2567ca	-0.040382184
217	0x3f00a4a6	0.50251234
218	0xbd6f84e5	-0.058476347
219	0xbda17903	-0.07884409
220	0x3d166e28	0.036726147
221	0x3d82aca2	0.06380583
222	0x3dce5843	0.10075428
223	0x3de153d1	0.11002315
224	0xbe8f8e13	-0.28038082
225	0x3f2c7d7a	0.6737896
226	0xbdbc2910	-0.091875196
227	0x3ebfec43	0.3748494
228	0x3df3a448	0.118965685
229	0xbe4a9e0e	-0.19786856
230	0x3df117a2	0.11772086
231	0x3daf5da5	0.08562783
232	0xbe71c6fb	-0.23611061
233	0x3f459165	0.7717498
234	0xbe526030	-0.20544505
235	0x3d6cacfe	0.057782166
236	0x3e23ca4d	0.1599514
237	0xbf7990cf	-0.97486585
238	0x3e08550e	0.13313696
239	0xbe305851	-0.1722119
240	0x3eb7a2e6	0.3586647
241	0x3dc62d8f	0.09676658
242	0xbc2b4e12	-0.010455625
243	0xbe87c3d9	-0.26516607
244	0xbea201dd	-0.31642047
245	0xbeeed2a1	-0.46645072
246	0x3cba0b09	0.02271034
247	0xbef118fd	-0.47089377
248	0x3e41cd73	0.18926029
249	0xbea070ff	-0.3133621
250	0xbe09c6f9	-0.13454808
251	0xbe4b29fe	-0.19840237
252	0xbe1af228	-0.15131438
253	0x3d0f52ce	0.034991078
254	0x3e24fa97	0.16111217
255	0xbe14b04d	-0.14520378

fc1.bias f4 [24]
0	0x3e385b21	0.18003513
1	0xbc79675a	-0.015222395
2	0xbe1cd8d3	-0.15317087
3	0x3e7ebc21	0.24876453
4	0x3afdd307	0.0019365259
5	0xbd1773a1	-0.036975507
6	0xbe31ae97	-0.17351757
7	0x3db93290	0.09042847
8	0x3ea6fe17	0.3261573
9	0x3e172fa5	0.14764269
10	0x3c38d29f	0.011280685
11	0x3e4fc72c	0.20290822
12	0xbd22ccbb	-0.039746027
13	0x3f1cda78	0.61270857
14	0x3d575ded	0.05257981
15	0xbe8480c8	-0.25879502
16	0xbea8533c	-0.32876003
17	0x3e727d97	0.23680721
18	0xbe6a95c4	-0.22908694
19	0xbd106a39	-0.03525755
20	0xbdb7e643	-0.08979466
21	0x3ebe00d7	0.37110016
22	0xbe18ebf6	-0.14933762
23	0x3ea90987	0.3301508

fc2.weight f4 [48, 24]
0	0x3ea72496	0.326451
1	0xbe00ead5	-0.12589581
2	0x3e7682ef	0.24073385
3	0x3d664c79	0.056225274
4	0xbdab99d0	-0.08378947
5	0x3e8d1bf4	0.2756039
6	0x3cdcaa17	0.026936574
7	0x3e1f7b1e	0.15574309
8	0x3e5d9deb	0.21642272
9	0x3e8e41ca	0.27784568
10	0xbda7eab5	-0.08199064
11	0x3e136d31	0.14397122
12	0x3e500beb	0.20317046
13	0x3d2c1d6d	0.04202025
14	0xbd72769a	-0.05919514
15	0xbe1c205e	-0.15246722
16	0xbdded82a	-0.10881074
17	0xbcf4d8ae	-0.029888477
18	0x3d55734b	0.052111905
19	0x3e72b341	0.23701192
20	0xbcfb0b9a	-0.03064518
21	0xbd867a0d	-0.06566248
22	0x3d06a362	0.032870658
23	0x3eb2cda4	0.34922516
24	0xbeaec2cc	-0.34132993
25	0x3e5c4a7f	0.21512793
26	0x3d0ba3dc	0.034091815
27	0x3e60bfd5	0.21948178
28	0xbe10c2e1	-0.1413684
29	0xbd1dacdd	-0.038494933
30	0xbec73cb9	-0.38913515
31	0xbdecaba0	-0.11556172
32	0x3dffdee7	0.12493687
33	0x3e2e58f8	0.17026126
34	0xbe020afd	-0.12699504
35	0xbe63b774	-0.2223795
36	0x3e1d3cc0	0.15355206
37	0x3dda2b9f	0.10652851
38	0x3e6411a3	0.22272353
39	0x3e6c3baa	0.23069635
40	0xbdf263f1	-0.118354686
41	0x3e4c12bb	0.1992902
42	0x3e1e925a	0.15485516
43	0x3de135a5	0.1099656
44	0xbcdc1cb9	-0.026869165
45	0xbe9a06f2	-0.30083424
46	0xbdbd632d	-0.09247432
47	0xbc8e1b0f	-0.017346887
48	0xbcedc1f2	-0.029023144
49	0xbdaa83ff	-0.083259575
50	0x3c22c848	0.009935446
51	0xbe218f6c	-0.15777367
52	0xbc922860	-0.017841518
53	0x3e7c9e1d	0.2466969
54	0x3e73f54e	0.23824045
55	0x3d3c2210	0.045930922
56	0x3dde0af1	0.10841931
57	0x3d450478	0.048099965
58	0x3d5109bd	0.051034678
59	0x3e400adf	0.18754147
60	0x3e67d8d8	0.22641313
61	0xbc6425a7	-0.013924993
62	0xbba9483f	-0.005166083
63	0xbd934da2	-0.07192542
64	0x3c37f69f	0.011228233
65	0xbe05730a	-0.13032165
66	0x3bffab1f	0.0078023816
67	0xbdfb1ff8	-0.12261957
68	0x3d897820	0.06712365
69	0xbe47ca0f	-0.19510673
70	0xbd8d1205	-0.068882026
71	0xbe670387	-0.2255994
72	0x3e58e078	0.21179378
73	0x3db96929	0.09053261
74	0xbcb1df13	-0.021712815
75	0x3e1d3f8f	0.15356277
76	0xbd754062	-0.059875853
77	0x3e9f9ba3	0.3117343
78	0xbe148ee0	-0.14507627
79	0x3cdda97d	0.027058357
80	0x3ed9deb1	0.42552713
81	0x3e8dcccd	0.27695313
82	0xbd4b9bb3	-0.049709033
83	0x3e12479b	0.14285128
84	0x3dae42ef	0.0850886
85	0x3d594cb5	0.05305167
86	0xbd02bda0	-0.03191912
87	0xbe7f7e64	-0.24950558
88	0x3d18fc42	0.037349947
89	0x3ba04331	0.0048908223
90	0xbd0986d3	-0.033575844
91	0x3d4a830d	0.049441386
92	0xbc224693	-0.0099045215
93	0xbe00167c	-0.12508577
94	0x3e027d04	0.12743002
95	0xbcd54539	-0.026033984
96	0x3e74d7b1	0.23910405
97	0xbd9f6aa4	-0.07784012
98	0xbe2f235d	-0.17103334
99	0x3d11b680	0.035574436
100	0x3e826c3d	0.25473204
101	0x3cc07faa	0.023498375
102	0xbe5f8a90	-0.21830201
103	0x3c814d91	0.015784057
104	0x3e9bf249	0.30458286
105	0xbe1555e2	-0.14583543
106	0xbea698b0	-0.32538366
107	0x3e22ce81	0.15899087
108	0xbe07ba21	-0.13254596
109	0xbb31050a	-0.002701106
110	0x3e0a72a1	0.1352029
111	0x3ee2ce74	0.44298136
112	0xbd9f4010	-0.07775891
113	0x3ed77f7f	0.4208946
114	0x3e70d86c	0.23520058
115	0xbdb6e7f4	-0.0893096
116	0xbf46562d	-0.77475244
117	0xbe50aad0	-0.2037766
118	0xbeffdb81	-0.49972156
119	0x3e3cae6e	0.18425915
120	0x3e3aa338	0.18226326
121	0x3d09313a	0.03349421
122	0x3eb60c8f	0.35556456
123	0x3f17f583	0.59358996
124	0x3ec96a7e	0.3933906
125	0xbe5a1822	-0.21298268
126	0xbe9f446b	-0.31106886
127	0xbd42fc83	-0.047604095
128	0x3e81fdb5	0.25388876
129	0x3f21b2ff	0.6316375
130	0x3e2e0479	0.16993894
131	0xbd303b15	-0.043025095
132	0xbe6ec976	-0.23319039
133	0x3e893ca2	0.26804072
134	0xbe12c25b	-0.14331953
135	0xbe4f3812	-0.20236233
136	0xbec3a8e8	-0.38214803
137	0x3e3ef7d3	0.18649225
138	0x3e588287	0.21143542
139	0x3d0c3128	0.034226567
140	0xbe4f3ace	-0.20237276
141	0x3ede7900	0.4345169
142	0xbccdb7d6	-0.025112074
143	0xbedff551	-0.4374185
144	0x3e9ad661	0.30241683
145	0x3e10000a	0.14062515
146	0x3d2e0b96	0.042491518
147	0xbc8bf7ae	-0.017085876
148	0x3e55c547	0.20876037
149	0xbec36181	-0.38160327
150	0xbe091e24	-0.13390404
151	0xbea9619f	-0.3308229
152	0xbd67d62b	-0.05660073
153	0xbf05bf69	-0.52245194
154	0x3e43b756	0.19112906
155	0x3bcba0e8	0.00621425
156	0xbe10e1a8	-0.14148581
157	0xbe1a2562	-0.15053323
158	0xbdce1ba4	-0.10063866
159	0x3e479b7a	0.19492903
160	0x3d9d9534	0.07694474
161	0xbd97490d	-0.0738698
162	0x3ec27e90	0.37987185
163	0x3b4c1dfe	0.0031145806
164	0xbe50ee33	-0.20403366
165	0x3e7af32c	0.24506825
166	0x3eb91f80	0.36156845
167	0xbd0458a4	-0.032311097
168	0x3f01ce18	0.507051
169	0x3d810fba	0.06301828
170	0x3ee99fa0	0.45629597
171	0xbd0ed962	-0.03487528
172	0xbe7adcb6	-0.24498257
173	0x3b10faca	0.0022122138
174	0xbe09ac82	-0.13444713
175	0x3d8c9252	0.06863846
176	0x3caf0655	0.021365324
177	0x3e2c061f	0.1679921
178	0x3ea71601	0.32633975
179	0xbf2872a3	-0.6579992
180	0x3dbbf04e	0.09176694
181	0x3e5b4266	0.21412048
182	0xbd5f0fdd	-0.054458488
183	0xbecf088c	-0.40436208
184	0xbe1cb272	-0.15302446
185	0x3e88589f	0.26630113
186	0x3d02b268	0.031908423
187	0x3e433909	0.19064726
188	0x3decebc8	0.11568409
189	0xbef11dc7	-0.4709303
190	0x3e5ba801	0.21450807
191	0x3e1e4741	0.15456869
192	0x3e53a202	0.2066727
193	0x3d66a979	0.056313965
194	0x3e1d4360	0.15357733
195	0x3d1d6293	0.038424086
196	0xbdf38921	-0.1189139
197	0x3b5e7c6a	0.0033948668
198	0xbdbf5693	-0.093426846
199	0x3ce2be65	0.027678678
200	0xbe2f1def	-0.17101263
201	0x3c665ced	0.014060241
202	0x3cbe1d80	0.023207426
203	0xbcb2558f	-0.021769313
204	0xbd6ad988	-0.05733636
205	0x3e9220a2	0.28540522
206	0xbdcd07e2	-0.10011269
207	0xbd896d8e	-0.06710349
208	0x3dcdd21e	0.10049842
209	0x3e87c997	0.26520988
210	0x3e600b6d	0.21879359
211	0x3e223e4c	0.15844077
212	0x3d8b20fe	0.06793402
213	0x3ead2155	0.33814493
214	0x3e9bf6d9	0.30461767
215	0xb9b82418	-0.00035122107
216	0xbd369206	-0.044572853
217	0x3e2dccee	0.16972706
218	0xbeca6023	-0.39526471
219	0x3ceacc95	0.028662005
220	0xbc9f272b	-0.019427856
221	0xbd8aa6f9	-0.06770129
222	0x3d3971c3	0.045274507
223	0xbdf3082b	-0.11866792
224	0xbef36315	-0.4753653
225	0xbf8a8229	-1.0820972
226	0x3e41f532	0.18941191
227	0xbe2e0fac	-0.16998166
228	0x3d9f8e66	0.07790832
229	0xbebdc0f1	-0.37061265
230	0x3d4e9a53	0.050440144
231	0xbd7dc0a7	-0.061951306
232	0x3cdb4a42	0.026768807
233	0xbeb12735	-0.34600225
234	0xbd02f3c6	-0.03197076
235	0x3ea9bd45	0.33152214
236	0xbdc6b852	-0.09703125
237	0xbeca7b09	-0.39546993
238	0xbf4dc741	-0.8038216
239	0xbf79f60f	-0.9764108
240	0x3d9701f0	0.073734164
241	0xbd3f38a7	-0.046684887
242	0xbd26db89	-0.04073671
243	0xbebd68b6	-0.3699395
244	0x3d950620	0.07276559
245	0x3da85220	0.08218789
246	0xbd78ff02	-0.06079007
247	0x3e1359ca	0.1438972
248	0x3e2069f4	0.15665418
249	0xbec43452	-0.38321167
250	0xbe275735	-0.1634186
251	0x3df33dd8	0.1187703
252	0x3da3286a	0.07966693
253	0xbeb116e6	-0.34587783
254	0x3ca7b7a7	0.020473314
255	0x3d505778	0.050864667

fc2.bias f4 [48]
0	0x3e3dcd61	0.18535377
1	0xbe0c2f66	-0.13689956
2	0x3d7f5978	0.062341183
3	0xbdbdaf07	-0.092618994
4	0x3d99c34b	0.07507952
5	0x3e8b4073	0.27197608
6	0xbc907175	-0.017632226
7	0x3e3f83fa	0.18702689
8	0xbda0cea5	-0.07851914
9	0xbd79fc65	-0.061031718
10	0x3d810b0c	0.06300935
11	0xbe2c14bf	-0.16804789
12	0x3e922c77	0.2854955
13	0xbb450f52	-0.0030068946
14	0x3d5e2bcb	0.054240983
15	0x3e6ad429	0.22932495
16	0x3d61fdf9	0.055173848
17	0xbd914918	-0.0709402
18	0xbd974989	-0.073870726
19	0x3c9c985e	0.019115623
20	0xbd3282b3	-0.043581676
21	0x3e820367	0.2539322
22	0xbe579053	-0.21051149
23	0x3ea8c86f	0.3296542
24	0xbea9af5c	-0.331416
25	0xbcd281d8	-0.02569668
26	0x3e5b0462	0.2138839
27	0x3e9f5fa0	0.31127644
28	0x3ea015d9	0.31266668
29	0xbc003c15	-0.007826825
30	0xbdd5e334	-0.10443726
31	0xbdcf517a	-0.10122962
32	0x3e44f174	0.19232732
33	0xbe2ffccf	-0.17186283
34	0xbdf831f5	-0.121189035
35	0xbe06bd91	-0.13158251
36	0xbe4c7e0c	-0.19969958
37	0x3e504bc3	0.20341401
38	0xbd65903e	-0.056045763
39	0x3e8041c8	0.25050187
40	0x3e58c6be	0.21169564
41	0x3e760abd	0.24027534
42	0x3e63bf66	0.22240981
43	0xbd8d189a	-0.06889458
44	0x3e1520c1	0.14563276
45	0x3ca334d1	0.019922646
46	0x3e17b2ea	0.14814344
47	0x3dbd3933	0.092394255

fc3.weight f4 [2, 48]
0	0x3ca4ae4d	0.020102644
1	0xbdc62486	-0.09674935
2	0x3d4c9eee	0.049956255
3	0x3d9e145b	0.07718726
4	0x3d75541f	0.059894677
5	0x3efae420	0.4900217
6	0xbe2c2406	-0.16810617
7	0xbb85b93f	-0.004080921
8	0xbe48343e	-0.19551179
9	0xbedf02b6	-0.43556756
10	0x3eac69ef	0.3367457
11	0xbe93d988	-0.288769
12	0x3e45f785	0.19332702
13	0xbd88a2d1	-0.0667168
14	0xbda0ad6b	-0.07845577
15	0x3d772592	0.060338564
16	0x3e48438f	0.19557022
17	0xbd0b49e3	-0.03400601
18	0xbf35fa9a	-0.7108551
19	0xbddeaf97	-0.10873335
20	0xbea603e1	-0.32424834
21	0xbf6a0b99	-0.91423947
22	0xbeda916e	-0.4268908
23	0x3d5d9cc9	0.0541046
24	0xbcb2258d	-0.021746421
25	0x3f8c4b79	1.0960532
26	0x3e72cd2d	0.23711081
27	0xbeaefbbd	-0.34176436
28	0xbd3b82f0	-0.04577917
29	0xbf52b4b2	-0.8230697
30	0x3ec90e01	0.39268497
31	0xbe0264c5	-0.12733753
32	0x3edc0a3c	0.42976558
33	0xbdc6755a	-0.09690352
34	0xbd10beae	-0.035338096
35	0x3c80fba5	0.015744993
36	0xbd800bc4	-0.06252244
37	0xbe3e6601	-0.18593599
38	0x3ecf0d68	0.40439916
39	0xbdf55832	-0.119797125
40	0x3e0ea442	0.13929847
41	0x3f25e126	0.64796674
42	0x3e838b10	0.25692034
43	0xbdff9f41	-0.12481547
44	0x3e83a2ce	0.25710148
45	0x3e91adcc	0.2845291
46	0xbe40243e	-0.18763825
47	0xbe8feeb4	-0.28111804
48	0x3e261025	0.16217096
49	0x3f06382c	0.5242946
50	0xbe2d1a29	-0.1690451
51	0x3da8cd3f	0.082422726
52	0xbef774fa	-0.48331434
53	0xbe55f4f7	-0.20894228
54	0xbeeef290	-0.46669436
55	0x3f2bd3e9	0.67120224
56	0xbeadf290	-0.33974123
57	0xbde7449f	-0.11292385
58	0xbe88db28	-0.26729703
59	0xbe53b3c1	-0.2067404
60	0xbea6b09d	-0.3255662
61	0xbeddc825	-0.4331676
62	0x3e3d56a2	0.18490079
63	0xbe85f485	-0.26163116
64	0xbf872758	-1.0558882
65	0x3eabc1b7	0.3354623
66	0xbf322418	-0.69586325
67	0xba9b8b95	-0.001186716
68	0xbcf4a3d8	-0.029863283
69	0xbf3bbfee	-0.73339736
70	0x3f5313e0	0.824522
71	0xbe3aad6c	-0.18230218
72	0x3ea0949b	0.31363377
73	0x3efcd410	0.4938054
74	0xbec2e44e	-0.38064808
75	0xbea942d9	-0.33058813
76	0xbe6b2111	-0.22961833
77	0x3e951379	0.2911642
78	0x3eef3a38	0.46724105
79	0x3dec90aa	0.1155103
80	0xbe36881d	-0.1782536
81	0xbee9a5c1	-0.45634273
82	0x3dd86795	0.10566632
83	0x3eb831cf	0.359755
84	0x3e5d19f6	0.21591935
85	0xbe814098	-0.25244594
86	0xbf215efd	-0.63035566
87	0xbed6201a	-0.41821367
88	0xbef8489c	-0.48492897
89	0xbe9a10a7	-0.3009083
90	0xbeb0b53b	-0.34513268
91	0x3e3d41cb	0.1848213
92	0xbb6d226b	-0.0036183845
93	0x3df3127f	0.11868762
94	0x3d8de18a	0.06927784
95	0x3f343f20	0.7040882

fc3.bias f4 [2]
0	0xbd69cee6	-0.05708208
1	0xbbc4b28e	-0.0060027307
