critic_agent_1_checkpoint.pth (torch_old, 16189 bytes, 5 tensors)

fcs1.weight f4 [48, 24]
0.09365461 0.41710663 -0.039277982 -0.4432861 -0.092048 1.3050246 0.12467893 -0.1312143
0.58349884 0.35939327 0.036885027 0.14857878 -0.75272214 -1.021481 0.014429721 0.19626413
1.3178293 -0.12578005 -0.017532002 -0.17017964 -0.9510899 -1.9943002 0.07884271 0.07146301
-0.101693526 0.49230883 0.26980376 -0.21731576 -0.83905655 -2.0091503 0.005402319 0.14841041
0.7534022 1.8138485 -0.22267354 0.69150174 -0.3991116 -1.7570057 0.011019819 0.981587
0.7928292 0.87426853 -0.17027947 -0.16305572 0.6216282 1.3306715 -0.07602721 0.14720486
-0.47612965 1.1626774 -0.011626942 0.44998983 -1.444543 1.3832191 -0.005314263 0.12687483
-0.27969193 0.8872413 -0.043856245 -0.4735446 0.890058 -1.611752 -0.02329387 -0.30642676
0.32657135 1.9261035 0.012058864 0.083050795 1.1383151 -2.6741433 -0.15303947 -0.039048593
-0.048304692 0.09950579 0.10575158 0.2125839 -0.5288214 1.7037554 -0.053100325 -0.09522812
-0.20302919 0.12917179 0.06819906 -0.21448143 0.07068542 0.52748007 -0.12060003 -0.10430047
-0.34923193 -0.12938504 0.105917074 0.18017344 1.0628724 -4.475718 -0.17093919 -0.05546907
-0.024395918 -0.0899741 -0.03897261 -0.043085743 0.48227862 0.0010531575 0.03125874 0.023078017
-0.021758752 0.1413957 -0.0341487 -0.17012207 5.9823575 -0.11828521 0.035974562 0.108458824
0.06661542 -0.036878057 0.052958403 -0.08210571 7.7291718 0.07549895 -0.057145465 0.13844827
-0.33297753 0.113606244 -0.030482234 0.11679359 0.29783028 -2.267408 0.018016923 -0.07922459
-0.11253167 -0.13010198 -0.12078461 0.022023467 -0.15337603 -0.24130699 0.068758205 -0.042591978
0.4445014 0.02266081 -0.12241389 0.2438397 -0.9821105 3.3052382 0.030074619 0.09928544
0.64390606 0.9141773 0.118797116 -0.034951318 -0.51439315 -0.30033582 -0.21122302 -0.20590822
0.3273908 0.09671594 0.041255135 0.47238252 -0.22831526 -1.151198 -0.11225587 0.5864782
-0.06939837 0.29341498 -0.1651343 0.50925756 0.59362084 -3.4882567 -0.0746943 0.7623996
-0.051961362 0.48177442 0.19355215 -0.027722998 1.1827639 -0.18500197 -0.1701728 0.18469274
0.0150176715 0.49632704 0.07089921 0.29038143 1.4546591 -1.9600791 0.053438324 0.5123084
0.35826087 0.5766827 -0.091605365 0.22209187 -0.5171265 0.1724504 0.11955138 0.4046877
-0.103277996 1.453099 -0.04043181 0.31007686 0.22774565 0.22413029 -0.01817761 0.41799453
0.5330617 1.6314135 -0.06291705 0.152245 -0.6617629 -0.5028939 0.018006867 0.4645504
0.9725755 1.5830424 -0.001139398 0.47359324 -1.5657227 -2.5061262 -0.0010541466 0.539992
-0.28263324 -0.6390117 0.03283066 0.4818184 0.6243241 -0.6990318 -0.0582614 0.65325266
-0.3623043 1.0721723 -0.1161712 0.668555 -0.015032494 -1.5868284 0.031459134 0.89486086
0.22284536 2.183423 0.08462527 -1.7554202 0.27430418 0.011949084 -0.12674907 -1.56635
0.40413037 -0.13889334 -0.052916564 0.11840568 0.8592222 -0.042898424 0.16036819 -0.05071534
-0.08495354 -0.43275678 0.074503966 -0.19983438 -0.009700507 -0.094145805 0.060823962 -0.3023108
00000000: fdcd bf3d 008f d53e f3e1 20bd 65f6 e2be
00000010: a983 bcbd 0c0b a73f ab57 ff3d 0b5d 06be
00000020: 2e60 153f 6502 b83e c114 173d 0925 183e
00000030: 66b2 40bf e4bf 82bf a36a 6c3c 77f9 483e
00000040: a1ae a83f 7ccc 00be 469f 8fbc 9243 2ebe
00000050: a17a 73bf 3b45 ffbf 4978 a13d 335b 923d
00000060: b244 d0bd e70f fc3e b823 8a3e 0688 5ebe
00000070: 69cc 56bf eb95 00c0 f005 b13b e6f8 173e
00000080: f7de 403f 302c e83f 8804 64be 4206 313f
00000090: 5b58 ccbe 90e5 e0bf 798c 343c 4949 7b3f
000000a0: dbf6 4a3f 10d0 5f3f be5d 2ebe 14f8 26be
000000b0: 0723 1f3f 7253 aa3f 27b4 9bbd dfbc 163e
000000c0: 44c7 f3be 9dd2 943f ee7e 3ebc 1165 e63e
000000d0: c9e6 b8bf 530d b13f 4523 aebb 7aeb 013e
000000e0: c833 8fbe 3f22 633f 9ba2 33bd 7074 f2be
000000f0: d7da 633f e44d cebf c9d2 bebc f8e3 9cbe
00000100: 5c34 a73e 8f8a f63f 8b92 453c 8916 aa3d
00000110: 4fb4 913f 2a25 2bc0 61b6 1cbe 6bf1 1fbd
00000120: 24db 45bd b1c9 cb3d 4994 d83d 98af 593e
00000130: d760 07bf a814 da3f ba7f 59bd f606 c3bd
00000140: e2e6 4fbe 9c45 043e f3ab 8b3d 05a1 5bbe
00000150: 84c3 903d ef08 073f 26fd f6bd 7c9b d5bd
00000160: 87ce b2be 837d 04be 0deb d83d 637f 383e
00000170: 340c 883f 1539 8fc0 af0a 2fbe 8933 63bd
00000180: f3d9 c7bc 5744 b8bd bea1 1fbd ad7a 30bd
00000190: 39ed f63e 1a0a 8a3a 2a09 003d 1c0e bd3c
000001a0: 693f b2bc 09ca 103e 82df 0bbd 7b34 2ebe
000001b0: 796f bf40 843f f2bd 105a 133d a91f de3d
000001c0: aa6d 883d 720d 17bd e9ea 583d 0a27 a8bd
000001d0: 6055 f740 329f 9a3d 5d11 6abd 62c5 0d3e
000001e0: 087c aabe 64aa e83d e1b5 f9bc 7a31 ef3d
000001f0: 367d 983e 361d 11c0 3a98 933c 8040 a2bd
00000200: 0177 e6bd 7439 05be ec5d f7bd 8f6a b43c
00000210: 9b0e 1dbe 2e19 77be 1ad1 8c3d ed74 2ebd
00000220: b095 e33e 2aa3 b93c 22b4 fabd 1db1 793e
00000230: 986b 7bbf 0689 5340 0c5f f63c 2a56 cb3d
00000240: 07d7 243f 8607 6a3f e74b f33d 1d29 0fbd
00000250: 45af 03bf 9ec5 99be d94a 58be 9bd9 52be
00000260: c49f a73e 0213 c63d 25fb 283d 1fdc f13e
00000270: 7acb 69be 755a 93bf 68e6 e5bd 6f23 163f
00000280: bc20 8ebd 7d3a 963e f718 29be b45e 023f
00000290: 89f7 173f 993f 5fc0 53f9 98bd 9f2c 433f
000002a0: 70d5 54bd 23ab f63e 8932 463e 571b e3bc
000002b0: cf64 973f 2871 3dbe c741 2ebe 1820 3d3e
000002c0: ae0c 763c 941e fe3e 9b33 913d e0ac 943e
000002d0: 4532 ba3f dfe3 fabf 25e2 5a3d a526 033f
000002e0: f86d b73e 7aa1 133f 989b bbbd 0d6c 633e
000002f0: 6762 04bf d696 303e 5bd7 f43d 3a33 cf3e
00000300: 6a83 d3bd 26ff b93f d39b 25bd 65c2 9e3e
00000310: 2836 693e 6982 653e 36e9 94bc 6103 d63e
00000320: bb76 083f 28d2 d03f a8da 80bd 1de6 1b3e
00000330: 4b69 29bf a8bd 00bf 2383 933c 8dd9 ed3e
00000340: b5fa 783f 22a1 ca3f da57 95ba d07a f23e
00000350: 9a69 c8bf 5f64 20c0 4a2b 8aba ea3c 0a3f
00000360: 4eb5 90be 4596 23bf 7179 063d e7b0 f63e
00000370: b4d3 1f3f bff3 32bf 81a3 6ebd 913b 273f
00000380: f37f b9be f13c 893f 2beb edbd 6c26 2b3f
00000390: da4a 76bc 311d cbbf 4bdb 003d 9a15 653f
000003a0: 9331 643e 34bd 0b40 0350 ad3d 9cb1 e0bf
000003b0: 9971 8c3e 17c6 433c 82ca 01be 287e c8bf
000003c0: 2dea ce3e 0e3a 0ebe 0abf 58bd ad7e f23d
000003d0: fcf5 5b3f 42b6 2fbd 8f37 243e e3ba 4fbd
000003e0: 1ffc adbd 4c92 ddbe 8995 983d 62a1 4cbe
000003f0: e0ee 1ebc 84cf c0bd 8c22 793d 7bc8 9abe

fcs1.bias f4 [48]
-3.0642242 -2.658981 -1.4096487 0.09255985 -0.4090606 -2.072134 0.06452182 -0.37150523
0.047390454 -2.0884454 0.0880845 -0.024335233 -1.3128766 -4.714428 -2.0212233 0.5553528
-0.3021635 -0.38332465 -1.5104921 1.2300748 -1.3822358 -1.5590968 -1.1364748 -1.1676168
0.33476985 0.47686598 -1.895062 -0.43422273 -4.257158 0.77053154 -0.0901375 -1.3251616
-0.8744669 -0.90552044 -0.18613301 -0.1903105 -2.1063814 -1.2742519 -1.7610165 1.5630699
-1.4154172 0.49413502 0.555411 0.060461596 -0.21882452 -0.5455366 1.0022414 -2.0617926
00000000: 401c 44c0 bf2c 2ac0 5e6f b4bf 0590 bd3d
00000010: 6470 d1be d89d 04c0 0424 843d ef35 bebe
00000020: 7e1c 423d 17a9 05c0 a565 b43d af5a c7bc
00000030: 570c a8bf 98dc 96c0 b95b 01c0 9a2b 0e3f
00000040: 2db5 9abe 2143 c4be ce57 c1bf 1773 9d3f
00000050: 1aed b0bf 7c90 c7bf 0278 91bf 7874 95bf
00000060: f466 ab3e c727 f43e 6491 f2bf 7152 debe
00000070: a33a 88c0 8e41 453f 029a b8bd e59e a9bf
00000080: 10dd 5fbf 30d0 67bf a799 3ebe c1e0 42be
00000090: f4ce 06c0 b01a a3bf fd68 e1bf ad12 c83f
000000a0: 642c b5bf 44ff fc3e 6a2f 0e3f 94a6 773d
000000b0: 8913 60be 49a8 0bbf 7249 803f 69f4 03c0

fc2.weight f4 [48, 52]
0.21402946 -0.063271165 -0.050691627 -0.0014957445 -0.100893416 -0.41474542 0.029250609 -0.16532536
-0.25603345 -0.32703888 -0.6240298 0.12559646 -0.27434886 -0.12655152 -0.6065467 -0.1838519
-0.19872226 0.006776631 -0.48106313 0.006853573 -0.4372071 -0.12514147 -0.132652 -0.36845696
0.17259525 -0.23209204 -0.2693562 -0.40804097 -0.10750448 -0.029492686 -0.27660754 -0.25426006
-0.0128092645 -0.7302153 0.004672043 -0.18354699 -0.56298447 -0.21504554 -0.52237535 -0.06137727
-0.06323093 0.20484766 -0.44790497 -0.5672961 -0.48680782 -0.2869612 -0.32821006 -0.67521304
0.30492413 0.13295919 -0.019426487 -0.033659693 -0.30663672 -0.07269372 -0.3276698 0.2053082
0.0033052028 -0.39108306 0.101134725 -0.26386034 0.098586954 -0.30262908 0.24231532 -2.768273
2.192002 0.39189434 -0.15786736 -0.24162965 -0.07107728 0.5033887 0.22750537 0.33885762
-1.0951223 -0.20596227 0.43944445 -0.10913226 -0.32195702 0.31459987 0.023033846 0.10665999
1.8787439 0.020013478 -0.5299149 -0.25020605 -0.13092689 0.11727302 0.07973333 0.061304435
-0.0070427964 -1.5576353 0.15226218 -0.23514701 0.2965873 0.34231627 -0.20524792 -0.019345252
0.14081308 0.07683058 -0.057069838 -1.158642 0.30423412 -0.17153996 -1.1161011 -0.6947614
0.093911365 -0.049804118 -0.0793538 -0.22578697 -0.081391595 -0.076190405 -0.14870869 -0.39417282
-0.044615928 -0.1216961 -0.09326373 0.018678762 -0.1340153 -0.10503668 -0.014015344 -0.018320866
0.02712658 -0.12442956 -0.039165925 -0.22036573 -0.43123728 0.0031175395 -0.24481249 -0.19094731
-0.21083552 -0.31770998 -0.1439919 -0.24079545 0.024521802 -0.016996328 -0.2749156 -0.1669068
-0.0105498005 -0.30559367 -0.1911552 0.12824115 -0.12838884 -0.09874213 -0.05824718 -0.05855108
-0.16054687 -0.23856418 -0.0035228496 -0.39386162 -0.053399876 -0.019646138 -0.23422247 -0.044563033
0.14664645 0.016223457 0.08441407 0.044428866 -0.26654285 -0.32012194 0.012805849 -0.008301332
-0.42677197 -0.078700885 -0.24300762 -0.06110793 -0.27095038 -0.09802045 0.15262894 -0.08062788
-0.06781206 -0.13481312 -0.28360453 -0.014431013 -0.06849387 -0.6175235 -0.048202228 -0.16496418
-0.07875314 -0.06037365 0.047693267 -0.077941306 0.10809706 -0.3206588 0.077474594 -0.16317712
-0.1460537 0.0352747 -0.2512916 -0.4256349 -0.17811148 0.08650462 -0.113751255 -0.012145255
0.023904255 -0.027896704 0.02795017 -0.44518265 -0.090024665 -0.2582004 0.062431283 -0.22326045
-0.24742204 -0.020775901 -0.2734568 -0.08118261 0.131476 0.29555205 -0.090960555 -0.16814269
-0.054080468 -0.22396767 0.0661527 -0.34045458 -0.050460897 -0.030489212 0.03148328 -0.18927759
-0.072924376 -0.19261858 -0.0857326 -0.035272762 -0.16712224 -0.10973246 -0.1795155 -0.21193384
-0.2742515 -0.3041926 -0.044489563 0.121807724 -0.22787152 -0.2774982 -0.11493307 -0.10570714
0.0060081743 -0.2586106 -0.02480738 -0.15045927 -0.04748454 -0.27626714 -0.23306347 0.0388714
-0.0691897 -0.23772623 -0.058460716 -0.22900756 -0.040322986 -0.07168783 -0.1928594 -0.08925668
-0.03799803 -0.29553548 -0.00746383 -0.08325027 0.05557901 -0.19395082 -0.088796176 -0.1856703
00000000: 8a2a 5b3e 5094 81bd 06a2 4fbd db0c c4ba
00000010: 35a1 cebd 8359 d4be f99e ef3c 0d4b 29be
00000020: d116 83be a471 a7be 6bc0 1fbf 5c9c 003e
00000030: 7477 8cbe b996 01be a546 1bbf ac43 3cbe
00000040: d97d 4bbe 800e de3b e84d f6be f093 e03b
00000050: 9cd9 dfbe 1625 00be edd5 07be 64a6 bcbe
00000060: cfbc 303e 89a9 6dbe 0ee9 89be bfea d0be
00000070: 4f2b dcbd a59a f1bc 819f 8dbe 602e 82be
00000080: f3dd 51bc 64ef 3abf f017 993b bef3 3bbe
00000090: c01f 10bf e634 5cbe 64ba 05bf bb66 7bbd
000000a0: 387f 81bd 96c3 513e cd53 e5be 513a 11bf
000000b0: e03e f9be 94ec 92be 260b a8be c3da 2cbf
000000c0: 041f 9c3e 7426 083e 4c24 9fbc bfde 09bd
000000d0: 7dff 9cbe 72e0 94bd 56c4 a7be 503c 523e
000000e0: 1a9c 583b 0a3c c8be b91f cf3d b418 87be
000000f0: f5e7 c93d 33f2 9abe 8221 783e 632b 31c0
00000100: c349 0c40 60a6 c83e fba7 21be c36d 77be
00000110: f790 91bd 15de 003f 2bf7 683e bf7e ad3e
00000120: f82c 8cbf c6e7 52be ddfe e03e bc80 dfbd
00000130: 8dd7 a4be 3c13 a13e 7ab1 bc3c 8e70 da3d
00000140: ae7a f03f 4ef3 a33c 81a8 07bf 021b 80be
00000150: b311 06be d62c f03d 3a4b a33d 5c1a 7b3d
00000160: 42c7 e6bb 9860 c7bf 9eea 1b3e 61ca 70be
00000170: 4ada 973e 1444 af3e 832c 52be ef79 9ebc
00000180: 4e31 103e 5a59 9d3d 10c2 69bd 624e 94bf
00000190: 93c4 9b3e 2ca8 2fbe 67dc 8ebf e2db 31bf
000001a0: 9a54 c03d 67ff 4bbd 3f84 a2bd b334 67be
000001b0: a3b0 a6bd b709 9cbd 1747 18be 05d1 c9be
000001c0: 31bf 36bd ce3b f9bd 0e01 bfbd 3404 993c
000001d0: 4f3b 09be 791d d7bd 9da0 65bc a415 96bc
000001e0: 9038 de3c edd4 febd 736c 20bd 8ea7 61be
000001f0: 22cb dcbe a24f 4c3b 20b0 7abe b187 43be
00000200: 44e5 57be e2aa a2be 9d72 13be 1593 76be
00000210: f2e1 c83c e23b 8bbc bdc1 8cbe 9ee9 2abe
00000220: 12d9 2cbc c676 9cbe 30be 43be a651 033e
00000230: 5d78 03be 5039 cabd 9894 6ebd 42d3 6fbd
00000240: 6666 24be 2b4a 74be 9cdf 66bb 3ba8 c9be
00000250: d4b9 5abd f0f0 a0bc 04d8 6fbe ba87 36bd
00000260: 7d2a 163e 0ee7 843c 49e1 ac3d 0bfb 353d
00000270: 4e78 88be 06e7 a3be a0cf 513c 4f02 08bc
00000280: db81 dabe ee2d a1bd fdd6 78be 4f4c 7abd
00000290: 02ba 8abe f2be c8bd c34a 1c3e 3b20 a5bd
000002a0: 0de1 8abd 730c 0abe 9d34 91be 0e70 6cbc
000002b0: 8446 8cbd 0516 1ebf b36f 45bd 5fec 28be
000002c0: 5449 a1bd 5c4a 77bd 045a 433d b19f 9fbd
000002d0: fe61 dd3d 642d a4be 00ab 9e3d e717 27be
000002e0: 1a8f 15be 347c 103d 4ba9 80be d1ec d9be
000002f0: db62 36be 5629 b13d 6bf6 e8bd e4fc 46bc
00000300: dbd2 c33c a187 e4bc c1f7 e43c fbee e3be
00000310: da5e b8bd d832 84be f2b7 7f3d 639e 64be
00000320: 345c 7dbe 3932 aabc 8802 8cbe 1143 a6bd
00000330: a5a1 063e 9952 973e 8749 babd 992d 2cbe
00000340: 7b83 5dbd c857 65be 117b 873d 1050 aebe
00000350: 16b0 4ebd 83c4 f9bc 9df4 003d fcd1 41be
00000360: 6059 95bd ce3d 45be 9394 afbd 2c7a 10bd
00000370: 1822 2bbe 69bb e0bd e9d2 37be 2f05 59be
00000380: b16a 8cbe 22bf 9bbe b03a 36bd 5476 f93d
00000390: 2757 69be 3e14 8ebe 0862 ebbd fc7c d8bd
000003a0: 38e0 c43b 9c68 84be d938 cbbc ff11 1abe
000003b0: 267f 42bd e372 8dbe 31a8 6ebe 9e37 1f3d
000003c0: 54b3 8dbd 816e 73be 8174 6fbd f580 6abe
000003d0: b729 25bd 12d1 92bd ef7c 45be 35cc b6bd
000003e0: d3a3 1bbd 6d50 97be 2593 f4bb 1e7f aabd
000003f0: d1a6 633d 0b9b 46be c5da b5bd 5b20 3ebe

fc2.bias f4 [48]
-0.49330875 -0.35036665 -0.33980837 -0.3510233 -0.15642223 -0.32266384 -0.24559821 -0.2243672
-0.3655703 -0.25615728 -0.13518144 -0.28203344 -0.54460853 -0.3149272 -0.2147342 -0.35280508
-2.1690087 -0.3744152 -1.048846 -0.39293513 0.8358594 -0.7996835 -1.18869 -0.32577536
-0.054134227 -0.06755051 -0.30922297 -2.0873432 -0.3642609 -0.3342621 -0.196771 -0.13941012
-0.26637962 -0.31168598 0.978687 0.81806296 -0.06381847 -0.27114397 0.09290002 -0.23925897
2.0789604 -0.11011818 -0.3625922 -0.21130309 -0.12129986 0.06327611 0.08844984 0.4065177
00000000: f792 fcbe 4263 b3be 5dfb adbe 53b9 b3be
00000010: 262d 20be 3234 a5be 197e 7bbe 84c0 65be
00000020: 082c bbbe 0c27 83be 016d 0abe b066 90be
00000030: 776b 0bbf 233e a1be 48e3 5bbe dea2 b4be
00000040: 0ad1 0ac0 59b3 bfbe 9640 86bf cb2e c9be
00000050: e2fa 553f 0fb8 4cbf fe26 98bf 07cc a6be
00000060: dabb 5dbd ec57 8abd 7952 9ebe 0897 05c0
00000070: 6880 babe 6724 abbe 567e 49be 87c1 0ebe
00000080: e962 88be 4e95 9fbe 3b8b 7a3f 936c 513f
00000090: 42b3 82bd 62d3 8abe 5e42 be3d 4e00 75be
000000a0: b00d 0540 a485 e1bd afa5 b9be d65f 58be
000000b0: 106c f8bd e896 813d 3125 b53d 1723 d03e

fc3.weight f4 [1, 48]
0.0030137724 -0.02321731 -0.00044670684 -0.0002574573 0.0040073656 0.006514389 -0.0045135403 -0.0110757025
-0.006232546 0.0052951085 0.038131196 -0.008178101 0.030401194 0.024453802 0.02554669 -0.010943856
-0.10832138 0.0023646383 0.012584707 -0.006812782 0.009956352 0.11519609 -0.04430784 -0.009869828
0.011117004 0.018087829 0.01952827 -0.029931325 -0.046055317 0.022847906 0.0018218997 0.025781287
0.026615454 0.1055442 0.030328913 -0.038475294 -0.017540304 0.0069376826 0.024169382 -0.0414626
0.017955417 0.00848082 -0.0069008353 0.029818794 0.0005429806 0.0040471167 -0.05858341 -0.05189919
00000000: b682 453b 3a32 bebc fa33 eab9 55fb 86b9
00000010: 3850 833b a876 d53b 52e6 93bb dd76 35bc
00000020: 633a ccbb 9782 ad3b 752f 1c3d 71fd 05bc
00000030: ed0b f93c 5753 c83c 4b47 d13c dc4d 33bc
00000040: 9ad7 ddbd 0cf8 1a3b 1630 4e3c c23d dfbb
00000050: f81f 233c edeb eb3d 237c 35bd 0fb5 21bc
00000060: 1824 363c ed2c 943c c0f9 9f3c 8a32 f5bc
00000070: 80a4 3cbd 882b bb3c cfcc ee3a 4733 d33c
00000080: a708 da3c 8f27 d83d 5774 f83c 4598 1dbd
00000090: afb0 8fbc 8055 e33b defe c53c b0d4 29bd
000000a0: 3d17 933c 23f3 0a3c 6720 e2bb 8b46 f43c
000000b0: d056 0e3a ad9d 843b 28f5 6fbd 3f94 54bd
