critic_agent_0_checkpoint.pth (torch_old, 16189 bytes, 5 tensors)

fcs1.weight f4 [48, 24]
00000000: 1e76 073d c610 c23f a032 bebd c36d 1cbe
00000010: dfa2 23bc 4f89 793f 4e97 913d a122 233e
00000020: 2e17 a3be 2c33 db3f 30ee fa3a 7106 b83e
00000030: baa7 d9bd 0417 01bf b346 a8bc a570 d03e
00000040: 4318 abbe 04cd 2f40 c6c0 ceba 6047 91be
00000050: 46cb 8b3e e88c c4c0 1024 c23d 7983 2cbd
00000060: 8824 bb3d b42f 263f 709c 393e 730a 653e
00000070: 2bd5 d7be d2f8 83bf ec41 aabd c5e2 163f
00000080: f8c0 883d 7766 ca3f cf62 9ebd 005e 493f
00000090: fa42 9dbe c1a6 f9bf c919 203e 4dd1 893f
000000a0: 475a 233e 6c26 0440 3f6f 4ebe ddd7 57bf
000000b0: b743 f73e d84c 29c0 80d5 dbbd 1469 08bf
000000c0: 8a9a ab3e 3a6d 7b3f 11aa f8bc 5a9e 923e
000000d0: 7100 033f 138b 89be 75f3 c4bc 0885 16bd
000000e0: 36af 103e 005d 903f f1f3 aebd 47af 893c
000000f0: 6df0 cf3e 1e6d aa3d d0d6 84bd 9254 3c3e
00000100: f453 d13e 40b0 0040 6533 3b3d 120e efbe
00000110: ae7a ca3f ff34 35c0 1086 f4bd 2dc9 16bf
00000120: 0bfe 05be 6a40 0e40 ead8 ab3d 7ba1 0f3f
00000130: 7ddb 093f f598 6fbe 957d 99bd 39a9 813e
00000140: b5b0 b23d 3323 0d40 2484 933d 2d7b 943e
00000150: 7563 8f3f 4d5d 59be 1625 efbd 05e5 cc3e
00000160: f48d 823f 3f76 0640 0c8c 143e d6bf 49be
00000170: 043d 0b3f 5586 a2bf 41f5 06be 1786 ddbe
00000180: 6991 d6bd 2765 a03e d609 9c3c 32d8 21be
00000190: 6bd5 9a3e 7ed1 86bf f8d5 b63d 742e bcbd
000001a0: 2207 9ebd 7a2b 803f 1c14 283d c844 433d
000001b0: 5cf5 823e 9c10 42c0 eca5 e33d ee0a a73e
000001c0: f59b 55bd a8aa f73f ace8 f33d 071e 7a3e
000001d0: d09a 07bf 8181 acc0 9851 133c 31fa ed3e
000001e0: 896b 79be eb08 0e40 14ba ddbc 1c7d f9bc
000001f0: 071f 3f3d a311 683c 1c96 af3c 8ae9 67be
00000200: 383d 10bf 9f80 1340 88fb febd ef59 853d
00000210: 8db3 253f 644c 2dbf 6234 853d b1d0 013a
00000220: ce82 71bf a5b0 3640 2930 ecbd 00c6 163f
00000230: 2913 ba3f 1b13 ccc0 0838 183d 4b89 e33e
00000240: fd1f 913c 8ce6 a7bd c0f0 233e 7a94 de3d
00000250: 9de9 abbf 0c5f ba3f c6ff 2dbe cb19 7fbd
00000260: 4e62 4dbc 3ee8 413e 39ec 9c3d afc9 12bd
00000270: ce2f a73e e411 f73f 6f77 9dbd cc46 a03d
00000280: a4b2 02be e2e9 94be 3252 46bd a8f2 e0bd
00000290: 385c c63f fcd6 3fc0 9621 2c3d 71bf 123e
000002a0: a3bb 67be 492b 5cbf 2e91 343e 98fc 27bd
000002b0: 5d89 f03f 3134 b9bf 14e3 3fbe 4784 2f3e
000002c0: c6bd 9dbb 1299 87be 4187 af3c e051 09be
000002d0: a8a8 203f 8e3f 2dbf 40f4 813b 57dc b33d
000002e0: d0fb 243f f209 2fbd 9d18 11be 5a42 4cbd
000002f0: 53f4 adbf ade7 3f3f 6a3f 8e3d 0fe9 073e
00000300: d67f 9ebe f968 993e 2e45 94bc e9ce b3bd
00000310: 3b3d 6c3f a0a7 86bf d527 883b c6cc a43c
00000320: 03e5 b03d 9c2b 543f ebd6 9bbd a066 4dbe
00000330: d4e4 12be 3a71 453e e364 9e3b e8cc e43d
00000340: 7679 213f 8fce 2f3f 0d8b a3bc 4326 153d
00000350: 57d0 05c0 a8ba bb3f 53d8 a2bc 788e d23d
00000360: 3302 93be b203 0740 fa90 2b3d 0d56 003f
00000370: b9b5 ccbc 36d5 2b3f de8a 49bd 0939 2c3f
00000380: b467 35be bdbe 2440 e0f1 6abd 8a47 41bd
00000390: d582 4b3c a9da 43bf 44de b83d cf6a 373e
000003a0: 49da 8abc d1e8 4540 2eaf d13c bef6 04bf
000003b0: 0cc7 2ebe f302 5dc0 9c3d 3ebe ee1c a9be
000003c0: 7099 6ebe e033 2f3f fade 19be c085 763e
000003d0: 8cb4 6f3e d98f d6be 2a12 813d eeb0 923d
000003e0: 4bf8 88be a3b3 903f 3504 893c bcdf 003f
000003f0: 3353 3a3d c3ae 1ec0 d086 473b 8947 cd3e
0.03307163 1.5161369 -0.09287 -0.15276246 -0.009987562 0.9747514 0.07108937 0.15931179
-0.31853622 1.7124991 0.0019144472 0.35942414 -0.106276944 -0.50425744 -0.020541525 0.4071094
-0.33416948 2.7468882 -0.0015774004 -0.28374767 0.27303523 -6.1422005 0.094795346 -0.04211757
0.09137827 0.6491654 0.18126082 0.22367267 -0.42154822 -1.0310309 -0.08313355 0.5893977
0.06677431 1.581252 -0.0773369 0.7865906 -0.30715162 -1.9504014 0.15634836 1.0766999
0.15952407 2.064845 -0.20159625 -0.84313756 0.4829385 -2.6453152 -0.10734081 -0.53285336
0.3351634 0.9821354 -0.030354531 0.28636438 0.5117255 -0.26863918 -0.02404187 -0.036747962
0.14129338 1.1278381 -0.08542622 0.016807212 0.40613118 0.08321594 -0.06486285 0.18391636
0.40884364 2.0107574 0.04570331 -0.46690422 1.5818689 -2.8313596 -0.11939633 -0.5890072
-0.13085191 2.2226815 0.083909824 0.56105775 0.5385054 -0.23398192 -0.07494656 0.2532442
0.087251104 2.2052734 0.07202938 0.29000226 1.1202227 -0.21226998 -0.116769955 0.40018478
1.0199571 2.1009672 0.14506549 -0.19702086 0.5438998 -1.2697245 -0.13179494 -0.43266365
-0.104769535 0.31327173 0.019047659 -0.15805128 0.3024095 -1.0532682 0.0892753 -0.09188548
-0.07716204 1.0013268 0.041034803 0.047673017 0.2557782 -3.0322638 0.111156315 0.32625526
-0.052150685 1.9348955 0.11909613 0.24425517 -0.529706 -5.3908086 0.008991621 0.46479943
-0.24357428 2.2192943 -0.027066268 -0.030455165 0.04666045 0.014164361 0.021433882 -0.22647682
-0.5634341 2.3047254 -0.124503195 0.06511294 0.647271 -0.6769469 0.06504132 0.0004952057
-0.9434022 2.8545315 -0.11532623 0.58895874 1.4537097 -6.377332 0.03716281 0.44440684
0.017715449 -0.0819827 0.16009808 0.108681634 -1.3430668 1.4560256 -0.16992101 -0.062280457
-0.012535645 0.1893625 0.076622434 -0.03583687 0.3265366 1.9302335 -0.07688796 0.078260034
-0.12763458 -0.29084688 -0.04841823 -0.10983783 1.5496893 -2.9974966 0.042024218 0.14330842
-0.22630171 -0.8600355 0.17633507 -0.041012377 1.879192 -1.4469053 -0.18738967 0.17140304
-0.0048138825 -0.2648397 0.021426799 -0.13410139 0.6275735 -0.676751 0.0039658844 0.08782261
0.64446735 -0.042734094 -0.14169545 -0.049867965 -1.3590187 0.74962884 0.06945689 0.13272499
-0.30956906 0.299629 -0.018099394 -0.08779699 0.9228093 -1.0519905 0.004155139 0.020117175
0.086374305 0.8287904 -0.07609352 -0.2005868 -0.14345104 0.19281474 0.004833804 0.11171895
0.6307596 0.6867456 -0.019963766 0.036413442 -2.090841 1.4666338 -0.019878542 0.1028108
-0.28712615 2.1096005 0.041886307 0.50131303 -0.024988996 0.6712221 -0.0492047 0.6727453
-0.17715341 2.5741417 -0.057359576 -0.047187366 0.0124213295 -0.76505524 0.09026769 0.17911838
-0.01694979 3.092335 0.025596227 -0.51939 -0.17068118 -3.453305 -0.1857819 -0.33029884
-0.2330072 0.6843853 -0.15026465 0.24074459 0.23408717 -0.41906622 0.06302293 0.07162653
-0.26751933 1.1304821 0.016725639 0.5034139 0.0454895 -2.4794166 0.0030445345 0.4009364

fcs1.bias f4 [48]
00000000: 7884 fe3e c9d2 58bf 5ae2 6dbf ec5b 79bf
00000010: 594c 943c f660 5bbf 49f0 fc3f 7bb5 3cbf
00000020: bf6b 1bc0 5852 a0bf a353 b5be 6eee debf
00000030: 31bc 95bf 9e85 3fc0 5b8b 09c0 01f3 e1bf
00000040: 6420 05c0 6847 b03e 486d 373f d501 04c0
00000050: 4bee bbbf 3d51 11bf 05a4 b3c0 b0dd 0a3f
00000060: 5151 333d 2947 dcbf 3bd8 e63f 4ae7 59bf
00000070: b03f 89bf 6b16 8bc0 ba3d af3f e0da 10bd
00000080: 52f4 d8bf 4568 98bf e689 81bf 1adc 743f
00000090: 77db 763e 0758 b8bf 6158 f3bf 851e ae3e
000000a0: 7fc3 25be 3309 90bf dc31 37bf 416e ccbe
000000b0: 5fa3 b43f 8f19 8cbf 834b 85bf 95e2 87c0
0.4971044 -0.8469663 -0.9292351 -0.97405887 0.018102812 -0.85694826 1.9760829 -0.7371442
-2.4284513 -1.2525129 -0.35415372 -1.7416513 -1.1698056 -2.9925303 -2.1491306 -1.7652284
-2.080102 0.3442948 0.71651125 -2.0626118 -1.4682096 -0.56764585 -5.613772 0.5424452
0.04377872 -1.7209216 1.8034738 -0.85118544 -1.0722561 -4.3464866 1.3690712 -0.035364985
-1.6949561 -1.190682 -1.0120208 0.9564835 0.24107157 -1.4401864 -1.9011346 0.3400766
-0.16187857 -1.1252807 -0.71560454 -0.39927867 1.4112357 -1.09453 -1.0413669 -4.246409

fc2.weight f4 [48, 52]
00000000: 2438 8abd db9c a1bd f1eb f3bc 6a47 33bc
00000010: 46c9 9ebe 0793 c4bd 8e7d 9cbe a92d d4bd
00000020: c602 80be 28c5 4abd 9dc8 dbbd 2a4c afbe
00000030: 540f 7b3e b55c c6be e168 0abc 4fd4 66be
00000040: 5694 193d eb9c 4dbe 55cf 63be 1946 c8bc
00000050: 4172 9dbd 03ea d1bd 2b34 a1be 5d1f a3bd
00000060: 9688 0bbe f73e 3bbd f29b a4be dfa9 41bd
00000070: 84cf 33be c50f 1ebe ae7e 04bc afaa f1be
00000080: f5bb 50be 14dc cebc 5230 8dbe b4bb 5abe
00000090: 3ceb 50be ee2c dbbc b8fc e6bd 1ea5 6dbe
000000a0: 967c 84be 2a20 febd 3a28 6d3d 2756 f7be
000000b0: 7522 40bd 1f19 83be 9429 63be 907d c2bc
000000c0: c706 fe3d ca7e f0be 3933 39be 2863 db3d
000000d0: 6913 ec3e 0a93 83be c211 8d3e f129 35bd
000000e0: cced 0cbf 9b8a 19be 1874 c1bd 06e2 093f
000000f0: 9219 33bf 75be 443d bee8 813e 0ebb 8d3e
00000100: a69f 40bf 3ea9 ef3e 9841 033f 2b0e 643d
00000110: a680 97be ecf9 3cbd a599 64be b676 0cbf
00000120: 9da8 97be 9026 f33e 838a 393e bd30 57be
00000130: 3497 ec3d 2cee a33e 117c eebe bc39 c7bf
00000140: 49ca 08bf 9994 6a3d 6fe5 3e3f f8d8 1b3a
00000150: d45b de3e 4926 303f 7290 9a3c ba8a 373e
00000160: 4ae0 c9bd a83b d93e 412c 973f 72ff 433f
00000170: 82ac 30bf d0fa 78be b295 9bbc 634d 6d3d
00000180: 889e d3bb d825 beba c0a8 7e3e 1aaa 3abd
00000190: cdb1 edbd 853f ed3d 6ce6 afbd be4d 07bf
000001a0: 7832 6e3d 577c 02bd 4b54 f7bd d37b 04be
000001b0: b90b 42be fb10 a2bd df0e b43c 0a48 eabd
000001c0: 9cdf 06bd ecbb 0dbe da57 73bd e10e 1f3d
000001d0: c2ad 2ebe 65d5 d2bd 7372 bb3a ed34 a2bd
000001e0: 931c 813c f5ea 1bbd 4829 aabd fe65 06be
000001f0: be95 82be 785a 95bd daee 87bd ea5c 17be
00000200: 38e1 a4bd a7dc 25be 0a67 20be 4c1d 15be
00000210: 4690 d5bd 996a 7dbd 986c 03be 8f51 02be
00000220: 4520 863b 8933 d6bd 1c0b a63c e121 22bd
00000230: 0b8f f4bd 5a4f a9bd 0733 96bd 3de3 fdbc
00000240: 4822 b8bd fac7 d2bd b828 9f3d f828 2abe
00000250: 4ce0 883c b581 5f3c 323e bbbd ed28 6a3d
00000260: 3d08 2c3d b579 2d3d dd1b fe3c 9edb 0b3e
00000270: b742 f7bd 756e 72be 40ed 1abd 0ec9 52bd
00000280: 9e3a 02be 6731 f23c 6e9c b0bd e61f f9bd
00000290: ebbc 47bc 6700 d9bd a3fa 29be a5ec e2bd
000002a0: 279c a0bc 94b7 8c3d fda9 b0bd 63ea 75bd
000002b0: b98b 30be 5874 f5bd d76d 243d 3d7e bb3d
000002c0: 40d6 ebbd 8b7b 29be 033c 0cbd 8401 613d
000002d0: de96 debd 74aa ffbd a8f2 2cbe 4539 b1be
000002e0: 91e3 00be e1bb 56bc b7d7 c4bd 6f8d 2bbe
000002f0: 382b fbbd 060b 6a3d dd77 56be aec5 bf3d
00000300: 417d 07be 9bd4 0abd be33 d9bd a487 38be
00000310: 591b 0fbe 21ed e9bd 7500 68bd 7593 1ebe
00000320: c7c9 0bbe 4bab b4bd 7c3e 1ebe 8539 1abc
00000330: 14eb cf3d c158 eabc 3355 eabd af84 fdbd
00000340: 00d4 fcbd 1fd9 51be 7337 13bd bbcd 09be
00000350: 48e9 4e3d 7da4 b2bd 9031 3cbc a05a 19be
00000360: c9c4 33bb ab34 f7bd cfc3 87be eb41 6dbd
00000370: 51dc 0b3d 771c 32bd 73c7 95bd ffcc 24be
00000380: 2aaf 2bbe 74aa 3dbd 42c2 91bb 4d5f 98bd
00000390: 525b 63be 8a88 33be d480 1ebd 5692 cc3c
000003a0: 160c bfbd af7b 6ebd 2bee 36be ba5e 3fbe
000003b0: fa5c 723c 7622 69be 97aa afbe d6d4 4cbe
000003c0: c771 acbd b6a4 0dbe 93e3 10bd efe6 47be
000003d0: 8f94 17be 35a1 15bb f859 42be 08ba 5bbd
000003e0: cb2c 86bb be05 cabd fffe 56bd bbd8 29bd
000003f0: 11de 873d 8419 e5bd 7ba9 b1bd 91fa 0fbe
-0.06748989 -0.07891246 -0.029775592 -0.010942319 -0.31012934 -0.09598356 -0.3056454 -0.103602715
-0.25002116 -0.04950443 -0.10731623 -0.34237796 0.24517566 -0.38742605 -0.008447857 -0.22541927
0.03749498 -0.2007939 -0.2224706 -0.024447488 -0.07687808 -0.10249712 -0.31485114 -0.079649664
-0.13626322 -0.045714345 -0.32150227 -0.047281142 -0.1755963 -0.15435703 -0.008086843 -0.47200534
-0.203842 -0.025251426 -0.27575928 -0.21360666 -0.20402235 -0.026754823 -0.11278671 -0.23207518
-0.25876302 -0.124084786 0.05789969 -0.48307917 -0.04690786 -0.25605103 -0.2218383 -0.023741513
0.124036364 -0.46971732 -0.18085946 0.10712272 0.4610856 -0.2569812 0.2755261 -0.04422945
-0.5505035 -0.1499428 -0.09445971 0.5386051 -0.6996089 0.048033196 0.2537288 0.27681774
-0.75243604 0.4680881 0.51271963 0.055677574 -0.29590338 -0.04613678 -0.22324236 -0.5486864
-0.2962083 0.47490358 0.18119244 -0.21014686 0.11552277 0.32017648 -0.4657903 -1.5564494
-0.5343366 0.05727062 0.7456884 0.00059451116 0.43429434 0.6880842 0.018867705 0.17924014
-0.09857233 0.42428327 1.181038 0.76561654 -0.69013226 -0.24314427 -0.018992279 0.05793513
-0.0064581074 -0.0014507128 0.2486906 -0.045572378 -0.116061784 0.11584381 -0.08588871 -0.52853
0.0581536 -0.03185686 -0.120766245 -0.1293786 -0.18949784 -0.07913395 0.021979747 -0.114395216
-0.032928094 -0.13841218 -0.059409954 0.03883255 -0.17058471 -0.10294608 0.0014301076 -0.07920251
0.015760696 -0.03806587 -0.08308655 -0.13124844 -0.2550487 -0.07292646 -0.06637354 -0.14781538
-0.080507696 -0.16197453 -0.15664306 -0.14561957 -0.104279086 -0.061869238 -0.12834394 -0.12726425
0.0040932023 -0.10459048 0.02026897 -0.03958309 -0.11941346 -0.08267088 -0.073339514 -0.030992145
-0.08990914 -0.10292049 0.07771438 -0.16617191 0.016708516 0.013641764 -0.09142722 0.057167936
0.042000044 0.042352397 0.031019146 0.13657996 -0.12073272 -0.23674949 -0.037823915 -0.051461272
-0.12717673 0.029564572 -0.086235866 -0.12164287 -0.012191038 -0.1059578 -0.16599517 -0.110802926
-0.01960571 0.06870952 -0.08626173 -0.06003798 -0.172408 -0.119850814 0.040143814 0.091549374
-0.11515474 -0.16551034 -0.03423692 0.054933086 -0.108686194 -0.12483683 -0.16889441 -0.34614006
-0.1258681 -0.013106317 -0.09611457 -0.16753171 -0.12264103 0.05713942 -0.20944162 0.09363876
-0.13231374 -0.033894163 -0.10605572 -0.18020493 -0.13975276 -0.11422182 -0.05664106 -0.15485938
-0.1365119 -0.08821734 -0.15453523 -0.009413128 0.101522595 -0.028606774 -0.11442032 -0.12378823
-0.12345123 -0.20492981 -0.035941552 -0.13457386 0.050515443 -0.0872278 -0.011486426 -0.14975977
-0.0027430526 -0.120705925 -0.26516578 -0.057924192 0.034145657 -0.043484177 -0.073134325 -0.16093825
-0.16766039 -0.046305135 -0.004448206 -0.07440052 -0.22202805 -0.17532554 -0.03869708 0.024972122
-0.09328477 -0.058223423 -0.17864291 -0.18688479 0.014792675 -0.22767052 -0.34309837 -0.20003065
-0.08420139 -0.13832363 -0.03537328 -0.19521688 -0.14802764 -0.0022831683 -0.18979633 -0.05364421
-0.004094695 -0.098643765 -0.052489277 -0.041466456 0.06634153 -0.11186507 -0.08674904 -0.14060427

fc2.bias f4 [48]
00000000: 794d bcbe b3ff 79bf 8e6c b7be d6a6 c1be
00000010: b652 93be 220a 4e3e b41d 83be 50c2 82be
00000020: 1b5a dfbd 262f 4ebf a5d4 56bd 0605 20be
00000030: cb4a a6be b407 a0bd 775c 1fbe 482e 87be
00000040: 0351 893e 0743 d93f 6454 65be c11a b4bd
00000050: 5114 c1be 3178 5abe b2f9 febe a21f 45be
00000060: 867c dcbd dec4 babe ed93 fabd 6839 8c3f
00000070: 76ad d6bf d2b0 e8be 4d84 1abe eca4 4dbe
00000080: 4999 de3d 69db bebe b9ac aabe 558c 95bf
00000090: 62e3 10be c624 883f 30be 673b b99c 11be
000000a0: b55f 8abe 3242 f1bd 1e57 5cbe 7972 24be
000000b0: 6b45 fcbd 189a 62be a2ac dfbd de66 aebd
-0.36777857 -0.9765579 -0.35825008 -0.37822598 -0.2877404 0.20121053 -0.256086 -0.25538874
-0.10905858 -0.8054069 -0.052448887 -0.15626916 -0.32478938 -0.07813969 -0.15562616 -0.26402497
0.2681962 1.697358 -0.22395474 -0.087941654 -0.37710813 -0.21334912 -0.49799877 -0.19250348
-0.107659385 -0.36478323 -0.12235246 1.0955019 -1.6771686 -0.45447403 -0.15089531 -0.20082444
0.108690806 -0.37276772 -0.33334902 -1.1683451 -0.1414924 1.0636222 0.0035361163 -0.14219941
-0.27026144 -0.11780204 -0.21517608 -0.16059293 -0.12317928 -0.22129095 -0.10921599 -0.08515714

fc3.weight f4 [1, 48]
00000000: 4ebd 713b b74f 55bc 5d24 4e3c 4fa0 a13c
00000010: b513 5839 c94e a6bc bf27 eabc a07a cd3b
00000020: e034 86bb 94f5 07bd 5f4c 7a3b 91a1 1638
00000030: becb bfbc cfd1 593d 2cf1 bb3c 5215 9f3c
00000040: 759d 363c a62d f73c 4046 1ebc 3685 38bd
00000050: 1fac 373e 1362 903c 1269 183d c9e3 8b3b
00000060: f703 cd3b 3fe9 dfbc e5ca 03bd 4ce0 ccbc
00000070: 8d9e c1bc 038f 13bd 4fa3 fdbc 1508 60bd
00000080: 0757 cc3c 0034 3dbc 551e fc3c 2656 20bd
00000090: 1c3b 5e3b 79db 523c 133b 0abd 5791 963c
000000a0: fa5d 253c 94c0 a4bc 771f 9f3c a206 d9bb
000000b0: 785b 633d 88b7 87bc e365 05bc 4f23 f9bb
0.0036886516 -0.013019494 0.012581912 0.019729761 0.00020606707 -0.02030124 -0.028583406 0.0062707216
-0.0040956587 -0.033193186 0.0038192493 3.5913257e-05 -0.023412582 0.053178605 0.022942148 0.019419346
0.011145939 0.030173134 -0.009660304 -0.045048915 0.17936753 0.01762489 0.037209578 0.0042690975
0.006256576 -0.0273329 -0.032175917 -0.025009297 -0.023635173 -0.03602506 -0.03096166 -0.054695208
0.024943842 -0.011548042 0.030776182 -0.039144658 0.0033909744 0.012869709 -0.033747744 0.01837985
0.010093207 -0.02011136 0.019424183 -0.006623105 0.055507153 -0.016567007 -0.0081419675 -0.007603086
